models/projector.pt (torch, 31251 bytes, 9 tensors)

h1.0.weight f4 [6, 3, 3, 3]
000000 b5 b0 f3 3d fe 27 a3 3e f0 44 16 3e 55 27 6b bd
       0.118989386 0.3186645 0.14674735 -0.057410557
000010 3d e1 0a 3e e5 14 85 3e 78 11 cf bd 59 37 8d bd
       0.13562484 0.25992504 -0.10110754 -0.06895322
000020 d8 1e d8 3d 9a 0e 16 be 72 f9 61 3c 09 a8 67 be
       0.10552758 -0.14654008 0.013792383 -0.22622694
000030 ea e2 66 3d 63 40 7b be 7a 16 b1 bb 18 a0 c6 3d
       0.056368746 -0.2453628 -0.0054042907 0.09698504
000040 62 6a 44 bd b0 82 84 bd 04 11 04 3e cf 1f 16 bd
       -0.047953017 -0.06470239 0.12897116 -0.03665143
000050 07 aa c7 bd 59 fd d5 3c 2a 31 61 be ae 9d 38 be
       -0.09749227 0.026121782 -0.21991411 -0.180289
000060 4f 3f e1 3d a1 73 aa 3d 7c c3 c6 bd eb b7 96 bd
       0.10998403 0.08322836 -0.097052544 -0.07359298
000070 b7 9d c3 bb 5b c2 d5 3d bd fc 5d 3e aa 60 89 3e
       -0.005969729 0.10437461 0.21678443 0.2683156
000080 73 e0 ba 3d 05 a1 2b 3e 4c 5c 1a 3e da b7 e6 bd
       0.091248415 0.16760643 0.15074271 -0.11265536
000090 93 44 54 3d 1f 5a 32 be 49 07 d3 bd 26 3d 8a 3d
       0.05182321 -0.17417191 -0.10304124 0.067499444
0000a0 c7 77 a9 bd a5 b7 f1 3d 59 5f ac bd 3a 94 29 3e
       -0.08274799 0.118026055 -0.084166236 0.1656045
0000b0 20 f9 0e be 87 6c 11 3e 8d 46 d7 38 34 b7 15 3d
       -0.13962221 0.14201556 0.0001026514 0.03655167
0000c0 d1 9d 3c bd 93 ef a3 bd e9 0a 4a 3d 05 ec ad bd
       -0.046048943 -0.080046795 0.04932681 -0.08492283
0000d0 5a 5e ff bd a9 9f be bd e3 f0 82 bd 98 38 7f 3e
       -0.12469168 -0.093077965 -0.06393602 0.24923933
0000e0 e2 fe 2b 3e 7c ca 9b 3b 06 94 50 3e ef b1 3c 3e
       0.16796449 0.0047543626 0.20368966 0.18427251
0000f0 d7 97 b6 bd bd 66 16 3e 00 7d b3 3d 2d 6f 26 3e
       -0.0891568 0.14687629 0.08764076 0.16253348
000100 ff 49 31 3d 99 db 94 3d ee b6 00 3e 57 3d 3d 3d
       0.04328346 0.072684474 0.12569782 0.046201076
000110 dd e0 26 bd ba be 09 bd b9 e6 fd bd 99 42 ed bc
       -0.04074179 -0.033629157 -0.123975225 -0.02896242
000120 98 ca ad bd 9f f2 e5 3d 79 a6 db 3c 06 a9 1f be
       -0.08485907 0.11227917 0.026812779 -0.15591821
000130 34 11 1e bd ee 0a 00 3e c6 e0 5e 3d 71 9f 12 bd
       -0.038590625 0.1250417 0.05441358 -0.035796586
000140 ba 04 46 be 04 f0 89 bd f3 82 ee 3c f4 d1 1f be
       -0.1933774 -0.067352325 0.029115176 -0.15607435
000150 2b 74 36 3d 09 da e8 bd 3b 53 35 be 4e ad e3 3c
       0.04454438 -0.11369712 -0.17707531 0.027792599
000160 35 f4 17 bc b2 cc fd 3c 54 91 4d 3e b5 f7 ca 3d
       -0.009274532 0.030981395 0.2007497 0.099105276
000170 07 60 ca bd 9e 4f 67 3e 48 68 d3 3d 22 0d 93 bc
       -0.09881597 0.22588965 0.103226244 -0.017950598
000180 38 0a 0e bd 0f 8d b0 bc f2 94 32 3e ba e4 d3 3d
       -0.034677714 -0.021551637 0.1743963 0.103463605
000190 1c 5a 22 3e 4a ff 92 3d 68 78 02 3e 2d 6c 99 3d
       0.15854686 0.07177599 0.12741244 0.07491336
0001a0 c5 fb a7 3d 07 ea 31 3d fb 80 4c be 38 1b 98 bd
       0.08202318 0.043436076 -0.19971077 -0.074270666
0001b0 10 a4 ad bc c8 09 75 bd d0 c6 84 be 61 32 e2 bd
       -0.021196395 -0.05982378 -0.25932932 -0.11044765
0001c0 54 1b 7d bc b2 1d d4 bd 96 45 95 be 98 39 94 be
       -0.01544841 -0.103572264 -0.29154652 -0.2895019
0001d0 28 af 7e be c4 47 e4 bd 62 7c 8a bd cf fd 70 3d
       -0.24871504 -0.11146501 -0.067620054 0.0588358
0001e0 67 bd 2a 3e 82 e3 00 3e 61 c6 1c 3e 24 69 c6 3d
       0.16673814 0.12586787 0.1531005 0.09688023
0001f0 d4 f1 0e 3e 68 5a a6 bc c0 be 12 be 20 67 70 be
       0.13959438 -0.020306781 -0.14330578 -0.23476839
000200 6f 7c 2d 3d 50 3c 0b be 94 13 e3 3d 2a 16 34 be
       0.042354997 -0.13597226 0.110877186 -0.1758658
000210 ac 7d 9f 3d bf 75 4d be 11 f9 f9 3d ab c8 06 3e
       0.07787642 -0.20064448 0.12205709 0.13162486
000220 87 7d 34 bd c6 d2 ef 3d 26 9a 2b 3c c2 b3 8b bd
       -0.044065025 0.11710124 0.010473764 -0.068213955
000230 dd 17 3e bb 2e 97 b7 bd 2a d8 2a 3e 38 ab d2 bd
       -0.0029005923 -0.08964382 0.16684023 -0.10286564
000240 ac cf 4f be 8a f2 f4 bb 56 b4 e3 bd 02 8a 6d bd
       -0.20294064 -0.007475202 -0.11118381 -0.057992943
000250 d9 5b 2f be 55 2b 51 bd ce 57 c7 3c 3c f3 18 be
       -0.17124881 -0.051066715 0.02433386 -0.14936537
000260 50 a9 02 3e d4 ed 04 be a7 7e 2a 3e cc 89 29 be
       0.127599 -0.12981349 0.16649877 -0.16556472
000270 60 37 ee bd f8 81 48 3b 51 87 b3 bd e1 98 02 3e
       -0.11631656 0.0030595046 -0.08766044 0.12753631
000280 49 cc 2c 3e 6c dd 04 be
       0.16874804 -0.1297509

h1.0.bias f4 [6]
000000 ba 69 1d 3d 08 a4 2d 3e d0 93 f9 bd 8a 00 13 3e
       0.038430907 0.16957104 -0.12186396 0.14355674
000010 cc e9 b2 bc e2 a4 8e 3e
       -0.021839999 0.2786017

h2.0.weight f4 [12, 6, 3, 3]
000000 f5 96 87 3e e9 1d 36 be a7 c2 ad bd 60 c9 69 3e
       0.2648236 -0.17784847 -0.084843926 0.22830725
000010 0e 40 a1 bd ac 29 f0 bd 3a a5 ba 3e c0 03 67 bd
       -0.078735456 -0.11726698 0.36454183 -0.05640006
000020 2b b3 ec 3d b7 08 09 bd 56 27 6d 3c 2c 06 1d be
       0.11557611 -0.033455577 0.01447471 -0.15334386
000030 0a 40 76 bd c6 a3 b3 3d c0 24 f7 3d 2f f5 58 3d
       -0.060119666 0.08771472 0.120675564 0.0529682
000040 65 ce 3f 3e 4b f1 fc 3d e1 01 a6 3d 87 ae 25 3d
       0.18731077 0.123507105 0.08105827 0.040449645
000050 dc 72 44 bd a5 de 32 be 66 e3 08 be 4d 5f 3c be
       -0.0479611 -0.17467745 -0.13367996 -0.1839573
000060 ce af f7 bc 39 9b 7a be 83 d5 3d be 51 8e 54 3d
       -0.030235197 -0.24473275 -0.1853848 0.051893536
000070 30 5f 50 3e 96 aa 91 3c 5c 39 00 3e 54 16 6b 3e
       0.20348811 0.017781537 0.12521881 0.22957736
000080 88 2a 6d 3e 04 36 f3 3d cd 14 16 3e 10 2e 86 bc
       0.23160756 0.11875537 0.14656372 -0.016379386
000090 70 fa 36 3d 5e a5 3e 3e ee 98 61 ba 9d c4 d9 3d
       0.04467243 0.1861777 -0.0008605857 0.10633204
0000a0 95 f6 79 3d 89 ff b3 bd 65 d8 18 3d ab 2a 96 3d
       0.061026175 -0.08788974 0.037315745 0.07332357
0000b0 e7 a9 b1 bd aa 0b 6c bc 57 e2 bf 3a c2 79 f5 bd
       -0.086749844 -0.014407078 0.0014639598 -0.11986114
0000c0 ad 26 52 3e 3f 0e d5 bd 86 9f 35 bd c5 25 4c 3e
       0.20522566 -0.10403108 -0.044341587 0.19936283
0000d0 6c ee 04 3e 0c 66 6d bd e4 b1 23 3e f4 40 4b 3e
       0.12981576 -0.057958648 0.15985829 0.19848996
0000e0 d9 74 c7 3d ec 7e 96 bc 80 32 69 bd 76 0d 4f 3e
       0.09739084 -0.018371068 -0.056932926 0.20219979
0000f0 f7 8d 53 3e fb d3 b7 bc 2c fb 22 3d d9 85 b8 bd
       0.20659624 -0.022439947 0.039790317 -0.090099044
000100 8a 5d ee bd 2b bf 51 3d 86 fa 08 3d 3b 05 87 bd
       -0.11638935 0.051207703 0.033442043 -0.065927945
000110 eb 9f 04 be 51 f5 ea 3d 2c 17 aa 3d 50 e8 aa bd
       -0.12951629 0.11472572 0.08305201 -0.08345091
000120 48 82 9b 3d f8 ad 26 bd 87 8d 58 bd a6 9a 82 3d
       0.075932086 -0.040693253 -0.052869346 0.06377153
000130 20 75 af 3b 72 ee c7 3c c5 6b 73 bd da 4a a7 3d
       0.0053545386 0.024405692 -0.05942895 0.08168574
000140 fc 88 84 bd e2 e8 1d be 10 6d e1 3d f1 80 df bd
       -0.0647144 -0.15420869 0.1100713 -0.109132655
000150 85 f2 10 3b 3e a6 6a 3c f5 b4 28 3d 09 9a 0d 3e
       0.002211721 0.014321862 0.0411882 0.13828291
000160 b2 3f ad 3d 1a 0a 02 3d 87 a8 5e bd 33 0b 0b 3e
       0.084594145 0.031747915 -0.05435994 0.13578491
000170 83 e3 d4 3d 93 cf 16 3e be 07 3a 3e 2a 98 f1 3b
       0.10394957 0.14727621 0.18167016 0.0073728757
000180 3a 8d 8a 3d 77 e4 2c 3e 51 17 2f 3e 13 69 ca 3d
       0.06765218 0.16884027 0.17098738 0.098833226
000190 e5 b0 a6 3d 6c 64 85 3d 6e c5 14 3d 91 d4 a0 bd
       0.08139209 0.065132946 0.036321096 -0.07853044
0001a0 ad cd c5 3d 7c 1a ba bd 89 11 6f bd 71 5e 3a 3d
       0.0965837 -0.09087083 -0.058366332 0.045500223
0001b0 67 fb f8 3c 72 0c 7e 3e 0d 2a bd 3d 3d c0 02 3e
       0.030393315 0.24809435 0.09236536 0.12768646
0001c0 19 8c 1c 3e e2 04 0a 3d 28 06 3f 3e b1 e0 08 3d
       0.15287818 0.033696063 0.18654692 0.033417407
0001d0 b7 7b 8d be bd f2 09 3d 57 4a bf bd be 45 13 bd
       -0.2763345 0.03367876 -0.09340351 -0.035955183
0001e0 77 4a bd bc 92 f8 1f 3e 50 3f 1a bd 82 59 86 bd
       -0.023106797 0.15622166 -0.037658036 -0.06560041
0001f0 98 54 11 3d db 35 29 3e 73 cd 75 3d 50 2f 5c 3c
       0.035481066 0.1652445 0.060010385 0.013439015
000200 0c 34 20 bd e6 7b c5 bd 9a 93 64 b9 80 4b 1a bd
       -0.039112136 -0.096427724 -0.0002179876 -0.03766966
000210 e6 85 9c bd 25 54 e2 3d 32 bb 97 bb 7a 68 1f 3d
       -0.076427266 0.110512055 -0.0046304697 0.038917996
000220 81 f6 7c bd e2 2d a1 bd 33 10 83 bd b9 af 5a 3d
       -0.061758522 -0.078700796 -0.06399574 0.05339024
000230 67 49 3a 3b b2 74 ca bd 9a 05 b1 bd 53 1a 20 3d
       0.00284251 -0.09885539 -0.086436465 0.039087605
000240 52 7d a7 bd db d2 ba 3d 44 61 bb bd c9 67 bc 3d
       -0.081782 0.09122249 -0.09149411 0.09199483
000250 85 bd 99 3d d6 3b 99 3d 3d 68 ac bd 09 1a 9d 3d
       0.07506851 0.07482116 -0.084183194 0.076709814
000260 0a 77 cc 3c 31 f0 ff 3d 78 bd b3 bc 9f c9 06 3e
       0.024959106 0.12496985 -0.021940932 0.1316285
000270 79 28 30 3e cd e6 21 3e 04 17 23 3e 65 cc bc bd
       0.17202939 0.158107 0.15926749 -0.09218673
000280 ed 93 ce 3c 9f f2 7e bc d4 f5 4e 3c 13 fd cc bd
       0.02521702 -0.015560775 0.012631852 -0.100092076
000290 a2 74 06 be 05 8c 3d ba cb 58 72 bd ec 5e 60 bc
       -0.1313043 -0.00072306424 -0.05916671 -0.013694506
0002a0 59 22 7e bb 82 e3 f3 3d aa 8d 09 be 01 75 39 3e
       -0.0038777797 0.11908628 -0.13432947 0.1811104
0002b0 c1 84 97 3d 99 a6 e1 3c a0 8d 26 bd 65 28 b7 bd
       0.07398368 0.02754526 -0.040662408 -0.089432515
0002c0 bb 56 92 bd d1 68 03 3e 9b 6a ae 3d e1 e8 da 3b
       -0.07145449 0.12832953 0.08516427 0.0066805934
0002d0 92 4d a2 3d 42 cf 0a 3e ef 67 8b 3d 59 fd 9a 3d
       0.079249516 0.13555625 0.06806933 0.075678535
0002e0 08 75 5f bd 08 a1 c6 bd 0b 58 ce 3d 55 f5 ff bc
       -0.05455497 -0.09698683 0.100753866 -0.031244913
0002f0 3e d6 00 be ca a7 39 3d fe a3 2b 3d 6f ed d0 bd
       -0.12581727 0.04532603 0.041904442 -0.10201537
000300 01 bb 4b 3d b6 fb ff 3c 52 73 12 3d a7 62 2d be
       0.049738888 0.031247955 0.03575451 -0.16932164
000310 35 2c 33 bd 8c 93 9c 3c b2 d6 3d 3d 44 30 dc 3c
       -0.04374333 0.019113325 0.046347328 0.026878484
000320 b1 14 07 3d 2e 17 f7 bc 7f 34 04 be 52 bf c6 bd
       0.032978717 -0.03016242 -0.1291065 -0.0970446
000330 22 0b 83 3d f3 98 94 bd b9 c2 f9 bd 51 3f d1 3d
       0.06398608 -0.07255735 -0.121953435 0.10217155
000340 6f 2f 62 3e 26 eb 4e bc 32 44 8b 3d 04 4e d2 3d
       0.22088407 -0.012629306 0.068001166 0.102687865
000350 f8 19 73 bd a2 ed b4 3d bb 11 24 3e 82 bd 63 3d
       -0.059350938 0.08834387 0.16022389 0.05560065
000360 f0 ed 88 3d 51 90 09 3e dc 4d 25 3d 7f fa 7c 3d
       0.06686008 0.13433959 0.040357456 0.06176233
000370 5a 5d a7 3d 12 f6 f2 bd 25 b5 d8 3c ea ba e6 3d
       0.08172102 -0.118633404 0.026453564 0.1126612
000380 ba 6a d2 bc e2 1e e7 3b 7a 8f a9 3d 86 fc 63 3d
       -0.025685657 0.007053242 0.08279319 0.055660747
000390 6d b9 a6 bd 7b 45 ba bd ec e5 fe ba 41 8b ae 3d
       -0.08140836 -0.090952836 -0.0019447184 0.08522654
0003a0 9f 7a 65 3c 50 36 3d 3d c8 c7 97 bd 12 c4 b9 3b
       0.014006286 0.046194375 -0.07411152 0.0056691254
0003b0 05 34 9a 3d 3f 19 4f 3d a8 8f c7 37 0d 27 df bd
       0.07529453 0.050561186 2.3789544e-05 -0.1089612
0003c0 03 b7 e4 bc 7b ee 0b 3e eb aa d4 bd a3 0c 89 bc
       -0.027919298 0.13665192 -0.103841625 -0.016729658
0003d0 c5 15 78 3c 67 d7 e3 bd a1 3d 42 3d 6e 0e b7 bd
       0.015141909 -0.11125069 0.047422055 -0.08938299
0003e0 e2 dd 40 be 9a 41 3f bb 86 b4 91 3d a5 a9 65 bd
       -0.18834642 -0.0029183389 0.0711451 -0.05606999
0003f0 75 14 d2 bd 87 aa 4f be 6d 7a 3c be 39 33 2e be
       -0.10257808 -0.20279895 -0.18406077 -0.17011727

h2.0.bias f4 [12]
000000 89 55 d5 bc 24 50 ad bb 3e ca fb 3d 2e c3 c3 3d
       -0.026041763 -0.0052890945 0.12294434 0.09558712
000010 11 4c 5e 3d 06 a7 db 3d f8 42 19 3d 04 0c 5a 3d
       0.05427176 0.107252166 0.037417382 0.053234115
000020 5b 3c 0e 3e b7 67 df bc 9f a0 4d 3b 0a 3c 07 bd
       0.13890211 -0.027271135 0.0031376255 -0.033016242

h3.0.weight f4 [18, 12, 3, 3]
000000 db 52 0b bd 92 13 7f 3d ce 0b 14 3e 57 86 f4 bd
       -0.034014564 0.062274523 0.14457628 -0.11939686
000010 f4 c2 b3 bd 8b 36 38 3c 29 8b d7 bd 17 7b 39 bd
       -0.08777419 0.011243473 -0.105245896 -0.045283403
000020 14 03 c5 bd 18 4b e3 bc 55 f9 56 3c 8a 38 86 bd
       -0.09619728 -0.027745768 0.013120969 -0.06553753
000030 46 d0 83 bd 97 3a ae bd c2 12 7e bd 48 cd 41 3c
       -0.064362094 -0.08507269 -0.062029608 0.011828728
000040 ae dc ea bc 8e 11 57 bd c3 bb 9d bc 81 8e b9 bd
       -0.028669681 -0.052506976 -0.01925457 -0.090603836
000050 9b fe 8d bd b8 f1 12 bd 80 fd b2 3d fa 37 b7 3d
       -0.06933328 -0.035875052 0.087397575 0.089462236
000060 21 47 ba 3d a7 8c d3 3c 8b b4 3e 3d b2 d7 e3 bd
       0.09095598 0.025823904 0.046558898 -0.11125125
000070 96 cc b1 38 4d 09 8d 3d 68 13 61 bd 81 ad 97 ba
       8.478125e-05 0.068865396 -0.054950148 -0.0011572094
000080 c2 aa d1 3d ff 8f 16 bd cf d6 04 bd 69 49 1d 3d
       0.102376476 -0.03675842 -0.03243142 0.038400088
000090 e9 7f 9d 3d 7c 87 a8 3d 47 4d c2 3d dd ac c0 bc
       0.076904126 0.082289666 0.09487396 -0.023519928
0000a0 7c 06 16 bd 75 32 b6 3d c2 d0 8d 3d 2f bb 42 3d
       -0.036627278 0.08896343 0.06924583 0.047541793
0000b0 4d a4 8f 3d 68 45 b8 3d 7e 66 0f 3e e4 9f c5 3d
       0.0701376 0.08997613 0.14003941 0.09649637
0000c0 c3 b4 e1 3c 93 7b c0 bb 45 09 9e 3d ff 38 8f 3c
       0.027552014 -0.005874106 0.07716612 0.017483233
0000d0 84 5c 06 3e eb f2 e4 3d 86 01 98 bd b0 ea 4b 3c
       0.1312123 0.111791454 -0.074221656 0.012446091
0000e0 a0 73 9e 3d 8f 03 ee 3d 1f 23 95 3d f0 35 e6 3d
       0.077368975 0.116217725 0.072820894 0.112407565
0000f0 3a 84 f3 3c 32 df ae 3c 5f 3f 04 3e 18 2c 21 3d
       0.029726136 0.021346662 0.12914799 0.03934869
000100 59 6f 11 3e 6d 87 7c bc 5e 15 f0 3d bd 58 c5 3d
       0.14202632 -0.015413147 0.117228255 0.09636066
000110 08 af 8a 3d f2 e9 c6 bc ce 0c 71 3c 75 af 37 bb
       0.06771666 -0.024281476 0.0147125255 -0.0028028165
000120 fb 00 56 3d 51 ae c4 3d 41 18 00 3e bd 4b 96 bd
       0.05224703 0.09603561 0.12509252 -0.07338665
000130 97 de 47 3d 06 9c 90 3d ed 72 9d 3c 69 39 a6 bc
       0.048796263 0.07061009 0.01921984 -0.020291047
000140 64 41 05 3d 25 78 7d bd 64 e8 94 3b 9e 23 c0 3d
       0.032533064 -0.061882157 0.0045443047 0.093817934
000150 97 14 b0 3b 65 55 89 3d 43 1c eb 3d 43 9b 55 3d
       0.0053735483 0.06705741 0.1148 0.052150022
000160 f0 58 8c bc 67 00 18 bd 3c e7 6c 3d 8a 2e 27 3e
       -0.017132252 -0.03710976 0.05783771 0.16326347
000170 19 08 e2 3d 45 8c 90 3d 01 bd 85 3d d6 02 e5 3d
       0.11036701 0.07058004 0.0653019 0.111821815
000180 58 5a 70 3d 77 ec 8e 3d 14 0a ab bc 3b bb a9 3c
       0.05867991 0.06978696 -0.020878829 0.020719161
000190 86 83 93 bc b0 c2 aa bd bb c5 49 3d 53 da 92 3c
       -0.018007051 -0.08337915 0.049260836 0.01792637
0001a0 06 30 2c 3c c6 1e c4 3c aa f6 d0 bd c2 84 15 be
       0.010509497 0.023940455 -0.102032974 -0.14601424
0001b0 d2 e8 b7 bd c6 26 6d bd bb 5d 42 bc 88 07 bb bc
       -0.08979954 -0.057898305 -0.011863167 -0.02283074
0001c0 ea 8d bd bc 00 d0 45 bd 49 1b 74 39 f4 e6 86 3c
       -0.023138959 -0.048294067 0.00023279818 0.016467549
0001d0 bd a4 5b bd 7c 11 a3 bb 95 d7 ac bd 4e 62 c1 bd
       -0.053623904 -0.0049764495 -0.084395565 -0.09442578
0001e0 08 ea d9 3d a2 d7 8f bd 26 4f 68 bd 73 5c 67 bc
       0.10640341 -0.070235506 -0.056716107 -0.014121163
0001f0 93 d7 82 bc 89 08 44 bd 6c 99 1f bd 9f 4a ca 3d
       -0.015971934 -0.047859702 -0.038964674 0.09877514
000200 22 26 6f 3d 9c 93 91 bd 19 89 e8 bb bd c4 ea ba
       0.058385976 -0.071082324 -0.0070964214 -0.0017911416
000210 ee 96 07 bd fc fb 7e bd f8 5b 1f bd c3 6f ee bd
       -0.033102922 -0.06225203 -0.038906068 -0.116424106
000220 d6 54 4c bc 8c fa 94 bc c4 6d 85 bd 2e 40 b5 3d
       -0.012471398 -0.018185876 -0.06515077 0.08850132
000230 64 e0 5d bd b8 8b f0 3c 55 e7 2e 3d 93 f5 ab 3c
       -0.054169074 0.029363498 0.042701084 0.020991122
000240 f0 6a 26 bc 38 af a0 3c 02 c0 fe 3d 3a c6 8f bd
       -0.010157332 0.0196148 0.12438966 -0.070202306
000250 0b 5b 60 bc f0 14 56 3d f7 4b 89 bd 74 02 b7 3d
       -0.013693581 0.05226606 -0.06703942 0.08936015
000260 21 7d df 3d 07 14 c1 3c af 72 2a 3d 7e 1a 8c 3d
       0.10912538 0.02356912 0.041613277 0.068409905
000270 08 a1 63 bb a0 81 69 3d 9c 23 4d 3c 29 2c 94 3d
       -0.0034733433 0.057008386 0.012520697 0.072349854
000280 30 7f a7 bc 3d 5a c3 3d 8f 9f 8e 3c 05 ca f1 3d
       -0.02044639 0.09538696 0.017410068 0.1180611
000290 20 37 a6 3b 37 ed 82 3d 76 a7 dd 3c 98 8e 67 bc
       0.0050724894 0.063929014 0.02705739 -0.014133118
0002a0 e8 39 c3 3c 19 b8 e3 3d e4 44 92 3c 15 c1 d4 3d
       0.023831323 0.11119098 0.017855115 0.1038839
0002b0 e1 53 dc 3d 6c 96 41 3d ff 82 af 3c 17 44 a3 bc
       0.10758186 0.047262594 0.021424768 -0.019929929
0002c0 cc 25 d2 bb 96 63 04 3d e4 12 97 3d 99 39 04 3c
       -0.006413197 0.032321535 0.0737665 0.008070373
0002d0 19 de c6 3d b4 0b 31 3d 00 cb 80 3d 2d a9 46 3d
       0.097103305 0.04322405 0.06288719 0.048501182
0002e0 bb 6f 93 3d 89 5f c8 3d 71 c5 43 3c b4 d7 de 3c
       0.07199045 0.09783847 0.011948929 0.027202465
0002f0 e0 1e 0e 3e b3 54 21 3d 70 87 1a 3e 10 17 ae 3d
       0.13878965 0.039387416 0.15090728 0.085004926
000300 23 70 a3 3d 74 80 c6 bb f6 84 c0 3d 94 d3 ed bc
       0.07980373 -0.0060577933 0.0940036 -0.029031552
000310 47 b0 ea 3c 20 77 72 3d 31 1b c8 3d 3c 3c 80 3d
       0.028648509 0.059195638 0.09770811 0.06261489
000320 c9 70 ce 3d ee 4c db 3d 95 d3 fd 3d b0 e3 a9 3d
       0.10080106 0.107080325 0.12393872 0.08295381
000330 2a 84 73 bd 94 e7 ad 3d 22 9c a3 bc d7 ce 1b be
       -0.059452213 0.08491436 -0.01997191 -0.15215622
000340 03 b4 25 bd 5e 0e 87 3b 6e 39 09 be 8c 0d 6b 3d
       -0.040454876 0.0041215857 -0.13400814 0.057385966
000350 47 ab 0a bd 2a 51 fa bd 89 e4 a5 bd e8 95 75 be
       -0.03385475 -0.12222512 -0.0810023 -0.23982966
000360 ac 2a 98 3c 7b 53 e1 3d dc a5 91 bd ab 9d 0c be
       0.018575035 0.11002251 -0.07111713 -0.1373202
000370 2d df 99 3b 2a c3 e4 bd 94 12 01 be b2 2b 8f bd
       0.004695794 -0.11170037 -0.12604743 -0.06990756
000380 0c e7 51 bd dd 92 be 3c 60 f1 87 3d c1 c7 ab bd
       -0.051245734 0.02326339 0.066378355 -0.083877094
000390 0a 4a 68 3c 32 d4 32 bd ee 97 88 bd a4 e7 c7 3d
       0.014177809 -0.043659396 -0.06669603 0.09760979
0003a0 f3 42 ce 3c b6 53 36 bd d7 ce 01 3d 37 53 b5 bd
       0.025178408 -0.044513427 0.0316914 -0.088537626
0003b0 50 02 73 bd be 51 b3 bd 20 21 26 3d 2d c4 4f bd
       -0.059328377 -0.087558255 0.040558934 -0.050724197
0003c0 c8 b7 ce 3d 68 fc 7a bd 7b 3d 93 bd ca 77 d7 bd
       0.10093647 -0.06127587 -0.07189461 -0.10520895
0003d0 9e a1 aa bd 46 48 57 3c ae f1 8f 3d 28 95 93 bc
       -0.08331607 0.01313979 0.070285186 -0.01801546
0003e0 3e a0 99 3d da 6f 0f 3b 5f e6 9c bd ac 15 51 bd
       0.07501267 0.0021886737 -0.07661127 -0.05104606
0003f0 7c cf 69 3d 4e 51 1f 3d f6 af 85 bd f2 14 60 bc
       0.05708264 0.038895898 -0.065277025 -0.013676869

h3.0.bias f4 [18]
000000 dc 96 1f bd 5f a4 1d 3d e0 36 1c 3d fa c6 b9 bd
       -0.03896223 0.038486835 0.03813827 -0.09071155
000010 2a c5 62 bd 3c b6 9b bd a4 7b 0a bd cb 7a dc bc
       -0.05536381 -0.07603118 -0.03380932 -0.026914021
000020 46 49 a4 3c 85 bc dd bc 0b bc 95 bd 02 a6 c4 bc
       0.02005447 -0.027067432 -0.07311257 -0.02400494
000030 24 e7 f7 3c 0c da 9d bd 15 f6 7f 3d b3 38 1e bd
       0.030261584 -0.07707605 0.06249054 -0.03862829
000040 63 9a 22 3c 8f 85 2c 3d
       0.009924504 0.04211956

h4.0.weight f4 [24, 18, 3, 3]
000000 dd 91 d4 bc eb f3 45 bd e5 ac 06 3c ce d7 04 bd
       -0.02594846 -0.04832832 0.008219932 -0.03243237
000010 a6 81 07 3d 9f 8c 22 bd 43 63 cb bc 34 76 bf bc
       0.033082627 -0.039684888 -0.024827605 -0.023371793
000020 c4 ed 26 bd 7c 29 26 3d bd 31 a0 3c fa 7a 0c 3d
       -0.040754095 0.040566906 0.019554967 0.034296967
000030 38 a0 a8 3b 30 03 06 bc 61 ca 40 bc 0e 0b 95 3c
       0.0051460527 -0.008179471 -0.011767001 0.018193748
000040 6b 92 bc 3d 27 51 ed 3c 6d 26 b6 3d eb 6c bf 3d
       0.092076145 0.02896936 0.08894048 0.09346946
000050 75 e7 61 3d 10 25 3d bb eb 68 31 3d e6 9e c6 3d
       0.055152375 -0.0028861202 0.04331295 0.09698276
000060 32 c6 4a 3d ea 25 5f 3d ff d6 a3 3c 0f 3a 02 3e
       0.04950542 0.054479517 0.019999979 0.1271746
000070 67 45 3b 3e 8b f2 59 3e c4 1f 10 3e 95 07 c7 3d
       0.18288194 0.21283929 0.14074618 0.09718243
000080 7e f9 f0 3d f7 da c9 3d e0 4f 29 3e b5 f0 47 3e
       0.11766337 0.09856217 0.16534376 0.19525416
000090 2d ff 5e 3d 2c 67 14 3d 0c 98 0d bd 32 8e ba 3d
       0.054442573 0.036231205 -0.03456883 0.09109153
0000a0 e8 55 f4 bc c9 ae 47 3d e4 ab a5 3d b0 be 6b 3b
       -0.02982612 0.048750672 0.08089426 0.0035971813
0000b0 b0 d8 17 3d ec 2b bb 3d 39 08 c2 3b a9 b8 78 bc
       0.037071884 0.09139237 0.0059213904 -0.015180745
0000c0 37 5f 3e bb bc 89 8e 3d 5b 55 52 3c 8e f1 ab 3d
       -0.0029048452 0.069598645 0.012837733 0.08395682
0000d0 37 2e bb 3d d0 c4 94 3d 24 f9 71 3d 3f d6 ac bb
       0.09139674 0.072641015 0.05907549 -0.0052745636
0000e0 63 f3 9e ba d3 b2 9c 3c 25 56 da 3c d3 d5 1f bd
       -0.0012126978 0.019128239 0.026652405 -0.039022278
0000f0 22 4d eb bc ab 7a 6d 3d 3e 89 46 3d c8 ae 15 3c
       -0.028723303 0.057978313 0.048470728 0.009135909
000100 50 8f 84 3d 85 fe 9f 3d 73 60 71 3d b2 69 c5 3b
       0.06472647 0.078122176 0.05892987 0.0060245628
000110 3d a3 a1 3d df 08 1c 3d 52 52 45 3d 64 6c 91 3c
       0.07892463 0.038094398 0.04817421 0.01775188
000120 a4 48 a4 3d 5d b3 96 3c c2 5e a5 3d 74 ae 28 3d
       0.080216676 0.018396074 0.08074714 0.041181996
000130 11 cd 5c 3c 76 de 35 3c 5d 09 8b 3d b8 f8 4e 3c
       0.013476626 0.011100402 0.06788895 0.012632541
000140 c2 ed 15 3b 83 95 bc 3d de 72 dd 3d 80 b8 8f 3d
       0.002287731 0.092082046 0.10812925 0.070176125
000150 d8 b2 cb 3d 63 8b ba 3c f8 35 da 3d 1a a2 2c 3e
       0.09946221 0.022771543 0.10654825 0.16858712
000160 a2 0e 1d 3d 38 18 d3 3d fb 49 8d 3c 63 04 de 3d
       0.038344033 0.10307354 0.01724719 0.108406805
000170 e8 6d 08 bc 30 ce 57 3c d2 11 74 3d 4c b2 ae 3d
       -0.008326985 0.0131717175 0.059587307 0.08530101
000180 3e b7 f0 bc 43 25 ec bc 46 92 e5 3d dd b1 bd 3d
       -0.029384252 -0.028826362 0.1120954 0.0926244
000190 43 02 b8 3d c1 d5 7f 3d bd 02 8d 3d d1 d3 cc 3b
       0.089848064 0.06245971 0.06885288 0.0062508364
0001a0 4e 74 8d 3d c2 46 36 3d c6 86 94 3d b3 cf b4 3d
       0.06906949 0.044501074 0.072522685 0.08828678
0001b0 b4 f7 98 3c f6 0c 59 bd 3b 8d 91 bd 0f de ec 3c
       0.018672802 -0.052990876 -0.07107016 0.02891448
0001c0 a8 45 0d 3d 9b 3d fd bb a7 f3 36 3d 55 20 6d bd
       0.034490258 -0.007728291 0.04466596 -0.057892162
0001d0 e5 f7 31 3c df 4b cd 3c 37 a5 67 3d 72 08 36 3c
       0.010862325 0.025060592 0.056554046 0.011110412
0001e0 1f e7 81 3d a8 9f 4d 3d ac 0f b1 3d 7e 66 b3 3d
       0.06342911 0.05020109 0.08645567 0.08759783
0001f0 90 bc 80 3d 62 5b 2c bd 28 0d 46 3b cf a5 2a bd
       0.062859654 -0.042079337 0.0030220244 -0.041662034
000200 39 bb b0 3c 6b c8 b3 3d b3 92 79 3d 9c 8f 08 3d
       0.02157365 0.08778461 0.06093092 0.03334008
000210 50 a5 b6 3d 97 1e 0a 3d 8f 2e 88 bd e8 c8 b6 3d
       0.089182496 0.03372058 -0.06649505 0.089250386
000220 d9 90 11 bc c2 04 a5 bc ad c8 b5 3d b5 15 01 3b
       -0.008884632 -0.02014387 0.088761665 0.0019696776
000230 d8 3b d5 bc db 02 ab 3c b9 62 1d bb 88 87 60 bc
       -0.026029512 0.020875385 -0.0024015142 -0.013704188
000240 d5 8e 65 3c d9 99 1d bd ab 3f 63 bd e3 15 cc 3d
       0.014011105 -0.0384768 -0.05548064 0.09965112
000250 f2 bb 53 3d 7c b3 ef 3c e7 de ec 3c eb 7c d5 3c
       0.05169291 0.02926039 0.028914882 0.026060542
000260 ea 8b b2 3d ee 49 fb 3c 18 b1 11 3c 12 9a 1d 3d
       0.08718093 0.0306749 0.00889232 0.03847701
000270 b8 42 c3 bc 1f ee 7e 3d df 15 5a bc 46 83 c8 bc
       -0.023835525 0.06223881 -0.013310879 -0.024476659
000280 75 98 90 3d 2d 91 08 3d 37 0a bb 3d 50 69 85 3d
       0.07060329 0.033341575 0.09132808 0.065142274
000290 66 7d 85 3d 19 ed e4 3d 83 67 f4 3a c3 67 bb 3c
       0.065180585 0.11178035 0.0018646572 0.022876626
0002a0 ad 4e e8 3c 83 4d db bb 2d 6e 47 3d 19 d1 c1 bc
       0.028357828 -0.0066925897 0.048689056 -0.023659276
0002b0 b7 9e 9a ba 66 f0 f9 bc de ad 9c 3d 51 e0 8e 3d
       -0.0011796568 -0.030510139 0.0765035 0.06976379
0002c0 19 1b 23 3d 64 de 82 3d b2 54 90 3c d7 da d8 3d
       0.039820764 0.06390074 0.01761851 0.105886154
0002d0 92 12 7c 3d 17 10 a0 3d 98 59 20 bd f7 6f 87 bc
       0.061541148 0.07815569 -0.039147943 -0.016532881
0002e0 35 51 a3 3d 8b 14 06 3d a6 53 24 3d a7 76 a6 3d
       0.079744734 0.032734435 0.040118836 0.081281
0002f0 ee 1b 2e 3d 48 d1 13 3e 01 97 f0 3d 3e fc 0e 3e
       0.042507105 0.14435303 0.11747552 0.1396341
000300 ef 62 70 3d 93 7e 31 3e de 09 fb 3d 18 7d 88 3d
       0.0586881 0.1733344 0.122577414 0.06664485
000310 13 3e 4c 3e a0 08 a7 3d 7d c2 ac 3d 31 21 73 3d
       0.19945554 0.08155942 0.08435533 0.059357826
000320 ed 16 6a 3d 7e e9 29 3d 38 cf c4 3d 67 87 8f 3d
       0.05715077 0.04148244 0.09609836 0.07008248
000330 94 00 8b 3d 4a 29 04 bd a3 fa 00 3d de 2d 80 3d
       0.0678722 -0.03226594 0.031489026 0.062587485
000340 cb bc fd 3c 99 c5 8a 3d 57 27 b3 3d 6d 8a 14 3c
       0.030973813 0.0677597 0.08747738 0.009066206
000350 c2 ae 30 bd a7 a8 90 ba ac 34 f8 3c be 49 1f 3d
       -0.043135412 -0.001103659 0.030298553 0.038888685
000360 05 3e 10 bd 72 0c ba 3c 01 ef 21 3d 99 51 5b bc
       -0.035215396 0.022711013 0.039534573 -0.013386154
000370 b7 75 6d 3d 89 c1 4b bd b2 fe 69 bd 25 31 77 3c
       0.05797359 -0.049745116 -0.057127662 0.015087401
000380 dd ce 53 3d 47 a7 cb 3d d5 b3 68 3d 53 66 94 3d
       0.051710952 0.09944015 0.056812126 0.07246079
000390 c9 98 37 3c cb 28 f8 3c 38 42 ad 3d 2e 17 03 3e
       0.01120586 0.03029289 0.08459896 0.12801811
0003a0 35 da 32 bc 5a 01 70 bc 44 b2 18 bd c2 1e e5 3b
       -0.010916282 -0.01464876 -0.037279382 0.006992192
0003b0 f6 2c 72 bd 25 7e 25 bc 47 10 6f 3c 90 21 c3 3c
       -0.05912491 -0.010100876 0.014591283 0.023819715
0003c0 2e a8 a7 3d 35 1b b5 bc 54 d7 4a 3d 31 4a cf 3d
       0.081863746 -0.0221077 0.04952176 0.10121573
0003d0 f6 de 22 3d 2f 83 1d 3d 2c a5 ed 3d 93 05 37 3d
       0.039763413 0.038455185 0.1160377 0.04468305
0003e0 87 7b 06 3e e3 9c c9 3d fd 2d 97 3d c0 df ff 3d
       0.1313306 0.09844377 0.073818184 0.12493849
0003f0 c4 7a 66 3c ca c4 e7 3d ce d1 da 3d e8 c1 8a 3d
       0.014067356 0.113168314 0.10684548 0.06775266

h4.0.bias f4 [24]
000000 9b d7 47 bc 45 70 93 bc e4 dd 09 bc 4b 5d 02 bc
       -0.0121974 -0.01799787 -0.008414719 -0.007956813
000010 6d a0 bd 3d b4 48 da 3c 55 cd 73 bc f9 db c2 3d
       0.092591144 0.026645996 -0.014880498 0.09514613
000020 a7 a2 4a bd 78 f6 2e bb f3 5e b0 3b 12 d7 27 3e
       -0.049471524 -0.00266972 0.0053824126 0.16390637
000030 70 8c 93 bd 44 09 fc bd 48 28 42 bd 15 24 35 bd
       -0.07204521 -0.12306455 -0.047401696 -0.044223864
000040 d2 c7 65 bd 29 8d 21 3e c6 b7 02 3e e4 be 2c 3d
       -0.056098767 0.15776505 0.12765417 0.042174235
000050 4f 55 92 bc 20 8a 1d bc a3 de f8 3c a8 90 29 bd
       -0.017862944 -0.009615451 0.030379599 -0.04139772

output.0.weight f4 [1, 24, 3, 3]
000000 04 fc d7 3c 9a 84 62 bc 63 56 9a 3d 25 cf aa 3d
       0.026365288 -0.01382556 0.07536008 0.08340291
000010 f8 80 e2 3c 12 33 e1 bc d7 96 00 bb 10 d7 18 bd
       0.027649388 -0.027490173 -0.0019621158 -0.037314475
000020 43 33 5d 3d 30 ca 48 3d b1 6b 5e 3d 8d b9 56 3d
       0.054003965 0.049020946 0.05430192 0.05242305
000030 30 6e 41 3d 09 03 9b bc 14 57 b1 3d df 6a f3 3c
       0.047224224 -0.018922346 0.08659187 0.029714046
000040 b2 45 b0 3d 36 58 7e bc 03 2e ab 3d 53 2c d1 bb
       0.08607043 -0.015523961 0.083583854 -0.0063834577
000050 91 1b 24 bb 11 04 28 bd 0c 75 47 3b c9 87 7a 3d
       -0.0025040845 -0.041019503 0.0030434756 0.06116465
000060 93 f3 66 3d 51 e2 b8 3d 38 e1 37 bb 81 33 be 3d
       0.056384634 0.090275414 -0.0028057825 0.09287167
000070 0e 70 f0 bb 86 37 d1 3d e1 a5 91 bc 98 88 60 3c
       -0.0073375767 0.102156684 -0.017779293 0.0137044415
000080 e3 0f b3 3d 77 db eb bb f6 1e 07 3d 21 07 06 3d
       0.087432645 -0.007197793 0.03298851 0.032721642
000090 9f b8 dd bd 4d 58 b5 bd de 5e b8 bd 8f 53 04 3d
       -0.10826229 -0.08854733 -0.090024695 0.03230625
0000a0 4e 49 1b 3d 91 06 56 bd 1f e1 48 bd 6b cf b6 bd
       0.037911706 -0.052252356 -0.049042817 -0.089262806
0000b0 93 2c 92 3c 37 ff b3 3b de fa bf 3c 35 bf 50 bd
       0.01784352 0.0054930705 0.023435052 -0.0509636
0000c0 eb ea a6 3d 93 cc a2 3d bb dc 5b 3d 7a d6 2f 3b
       0.08150276 0.07949176 0.0536773 0.002683072
0000d0 b2 8a fb 3c e1 f9 30 bd 49 a7 30 3d bc bf 63 bc
       0.030705784 -0.043207053 0.043128286 -0.0139006935
0000e0 c8 b3 60 3d d8 97 df 3d c4 2c 2b 3d 17 62 fc bc
       0.054858953 0.10917634 0.04179074 -0.030808492
0000f0 93 e0 d7 3d 35 4a c0 3c 87 3f 4e 3d 31 0a 33 bd
       0.10540881 0.023472885 0.050353553 -0.04371089
000100 03 e3 ac bd c9 4e eb bd bb e2 3a bd a2 d4 5c bd
       -0.084417365 -0.114896365 -0.045626383 -0.05391372
000110 c7 e8 b5 bd 1e 56 bb bd 4f 04 e0 bd 40 77 10 bd
       -0.088822894 -0.09147285 -0.10938322 -0.035269976
000120 6a d6 5d 3e e1 c4 b6 3e 20 20 81 3e 19 a1 46 3e
       0.21663824 0.35697082 0.25219822 0.19397391
000130 97 ae 22 3e 44 74 1c 3e f5 1a 87 3d bc 94 b6 3a
       0.15886913 0.15278727 0.065969385 0.0013929824
000140 d8 27 d1 bb 1e 71 80 3d 21 6a 91 b9 98 85 a7 3d
       -0.0063829236 0.062715754 -0.00027735627 0.08179778
000150 bd 9d b0 bb 2b c6 ae 3c 25 4a e4 3a 18 fe 6d 3d
       -0.0053898976 0.021334728 0.0017417116 0.05810365
000160 ae 92 6c 3d 29 9d 6c 3d 88 d8 e8 bc d3 97 18 bd
       0.057757072 0.057767067 -0.028423563 -0.037254166
000170 69 4c a1 3d 94 77 21 3c 28 d4 93 3d 0f 1d d1 3b
       0.07875902 0.00985517 0.072182 0.006381638
000180 cf c5 30 3d ab bd ac 3d 69 b7 a0 3d 90 05 36 be
       0.043157395 0.08434614 0.07847483 -0.1777556
000190 a5 47 2a be 3f 12 cb bd 34 0c 15 be ae 3d 0c bd
       -0.16628893 -0.099155895 -0.14555436 -0.03423851
0001a0 6f ea 8a bd d6 48 17 be 68 b6 9d bd 36 15 cd bd
       -0.06782996 -0.14773878 -0.07700807 -0.10013811
0001b0 b0 e7 d7 bc 8a 1c e2 bc 20 71 a0 3d 47 8a 89 3b
       -0.026355594 -0.0276015 0.07834077 0.004197392
0001c0 79 fa b2 bc 84 2f 62 bd 33 39 e1 3c c2 13 f1 bb
       -0.02184795 -0.055221096 0.027493095 -0.0073570916
0001d0 94 cd cf 3c d8 48 2a 3e 00 a9 1a 3e 6c 7d 24 3e
       0.025366582 0.1662935 0.15103531 0.1606347
0001e0 f4 51 3f 3e 59 19 8a 3e fb 3e 37 3e 04 79 95 3d
       0.18683606 0.26972464 0.17895119 0.072984725
0001f0 5d 74 32 3e 53 af 6f 3d eb 56 9d 3d 05 22 17 3c
       0.17427202 0.05851681 0.07682594 0.0092244195
000200 95 b4 57 3d fe a0 c0 3d 17 b8 b6 bc 18 e8 b2 3d
       0.05266245 0.09405707 -0.022304578 0.087356746
000210 af 43 70 3d 2a c5 ce 3d 9a 50 7f 3c 20 6c bb 3c
       0.058658298 0.100962 0.015583182 0.022878706
000220 f3 29 4b bc f1 f6 4c bc b9 f7 2b bd ef 04 38 b9
       -0.012400138 -0.012510047 -0.041984294 -0.00017549445
000230 d7 79 13 bb 2b dc 8d 3c 48 13 ed 3c 3e 86 5b bc
       -0.0022503042 0.017316898 0.028939858 -0.013398705
000240 6a fc 83 3d aa 0c ff bc b8 a4 f4 bc 0c ab ee bc
       0.064446285 -0.031133968 -0.0298637 -0.029134296
000250 3c 99 4c bc c6 ac 12 3c 6c 2d 89 3d e7 95 42 bd
       -0.012487706 0.008952325 0.06698117 -0.04750624
000260 9b 3a d0 3c ca c4 44 be 57 5f 05 be ad c8 1e be
       0.02541857 -0.19215694 -0.1302465 -0.15506239
000270 c7 8f 00 be 5b 27 2a bd 0a f9 03 be ff 76 14 be
       -0.12554847 -0.04154144 -0.1288797 -0.14498518
000280 1a 87 1b be 1d cc 86 bd 1c 09 50 be c5 02 1b be
       -0.15188256 -0.065819 -0.20315975 -0.15137775
000290 67 3d 3b be 66 b1 a7 bd a3 48 30 be 67 70 e7 bd
       -0.18285142 -0.08188133 -0.17215209 -0.11300736
0002a0 50 03 12 be fb 11 22 be 46 60 00 be ff 07 a0 be
       -0.14259076 -0.15827172 -0.12536725 -0.312561
0002b0 a7 c4 ae be 77 a5 a1 be 9a 26 72 be 15 92 80 be
       -0.3413441 -0.31571552 -0.23647538 -0.25111452
0002c0 7b 83 9f be 4f 51 2a be b7 95 89 be ed e4 8a be
       -0.31155 -0.1663258 -0.26872036 -0.27127782
0002d0 ba 21 c8 3d 62 56 ec 3d f1 ad 00 3e b5 e8 05 3e
       0.09772058 0.11539914 0.12566353 0.13077052
0002e0 92 19 d3 3d ae 10 74 3d a6 a2 02 3d 53 e8 f7 3d
       0.103076115 0.05958622 0.031893395 0.12104859
0002f0 e0 09 e1 3d 2c 2e 93 3d bb 4c 98 3d b6 ff d8 3c
       0.10988212 0.07186541 0.0743651 0.02648912
000300 61 ab 85 3d 16 7f 6e 3d 41 a2 09 bd 79 b0 04 3d
       0.065268286 0.058226667 -0.033602003 0.03239486
000310 16 5d b0 3c 48 17 8f 3d 09 a6 ea 3c 04 4d c8 3c
       0.021528762 0.069868624 0.028643625 0.024450786
000320 a3 e2 c1 3c 4c 08 32 bd e8 69 39 3a d2 e7 00 bd
       0.02366764 -0.043464944 0.0007072971 -0.03147108
000330 d8 d5 22 bd ac b9 28 3c 34 11 11 bd 65 80 3d 3d
       -0.03975472 0.010298174 -0.035416797 0.046265025
000340 4d a5 f9 3d bd 54 24 3e d4 c7 b2 3d bf 15 33 3e
       0.12189732 0.1604795 0.087295204 0.17488764
000350 e6 3b 27 3e d8 8b 93 3d 46 2a 38 3e fb 72 31 3e
       0.16331443 0.072044075 0.17984876 0.17329018
