models/projector.pt (torch, 31251 bytes, 9 tensors)

h1.0.weight f4 [6, 3, 3, 3]
00000000: 8994 213e 3e6e 563e 1a77 a73c a722 0d3e
00000010: e88b e2bd 36a2 9bbd 43d0 ceba 8012 36be
00000020: 5f4d d03d 3bcc 283e 140f 883d 439e d93d
00000030: b30d 623d 07fb 573d 1508 eb3c 7fca e33d
00000040: 8299 20be 9e61 913c d441 de3c bcb6 653d
00000050: 8b9b 31be f2ac 3abd b4f2 b73d 4f7f 0a3e
00000060: 065e 743c 28f7 1bbe 12ac 003e 8697 b33d
00000070: 3062 f33d 18a3 1b3d 4e8b 753e 5dff 723e
00000080: 2bb9 4e3e 3d19 46bd 4a0f 36bd c25b 133e
00000090: 2bc2 06be 1efc 81bc ba53 01be 3fca 9bbd
000000a0: 13d5 62bc 55ae 2cbe 561a fc3d 6734 bd3d
000000b0: d685 893d 6e89 54be 1c5a 003e a7e7 98bd
000000c0: 7e52 ff3d d480 31be 7987 36be 2e0c 3ebd
000000d0: aa95 9fbd 57d4 113e a71a 353e 6b5d dbbd
000000e0: 63a4 3c3d e957 153d 4c67 c83d 4181 d53d
000000f0: 26f2 4c3e 6f2e b23d d429 683e 2e19 9f3d
00000100: b647 c23b 6b3c acb9 d939 a73d fcd1 11be
00000110: 2957 b73d 75d7 4dbd 74ef 1d3e 5ff0 433e
00000120: e2a6 bdbd 6811 0bbe ea1d 02be c589 25bd
00000130: 36ba 9f3c fb9e 05be d52d 3bbe d45b 243d
00000140: 4e57 253e 82f5 683d f6c8 923d 6149 b9bc
00000150: a7b7 553e da43 293e 0fb1 153e 33e2 ee3d
00000160: 4e0c fa3d 8a30 fa3c e74f d83d 46cc 5dbe
00000170: 9392 edbd 2799 7b3d d9a8 5f3d aefa bd3d
00000180: 58a1 53be d56f 5dbe 7396 89bc 8298 3abe
00000190: da6c 1d3e 0732 853c b5b8 b5bd ea33 fbbd
000001a0: 94e3 41be 178f 2dbd 03dd bebd e437 5dbd
000001b0: a2fc 89bd 1f13 00be c27a 69be 518a 89be
000001c0: bce7 7fbe 7ae9 303d d681 79be f5c9 703c
000001d0: 60e2 28be 1d7f 323d 5719 683b 4e19 3d3e
000001e0: d501 3c3d 728e 4c3e 5395 5f3e 64a9 1c3e
000001f0: 54fc 2b3e 6399 e73c 1830 a63c 55df 83bc
00000200: 5dd5 e8bd 8db3 0abe 1a7f ff3d 276c 49be
00000210: d68b 4bbc 4695 aa3c 4cb7 f3bd 6f53 6abd
00000220: b5cc 4e3d 2cce b3bd 7d85 b9bd 92e2 e5bc
00000230: 2866 a53d 3785 433d d732 013e 4dfd 14be
00000240: 689d 7e3c 9f47 65be cbb2 c23c c99c cabd
00000250: 453a 6fbe a21e 54bb 5a96 2fbd a0aa 22be
00000260: 0220 6ebe 01be ef3d fd9d c5bd aab4 8c3d
00000270: 42d0 bdbd bed7 c3bc 6938 83bd 4f6f 183d
00000280: 1797 9e3d 55ac 0f3e
0.15779318 0.20940492 0.020442534 0.1378275 -0.11061841 -0.07599299 -0.001577862 -0.17780495
0.10171007 0.16484158 0.06643501 0.10625889 0.055188846 0.052729633 0.028690377 0.111226074
-0.15683559 0.017746743 0.027130999 0.056082472 -0.17344491 -0.04557509 0.08981839 0.13525127
0.014914995 -0.15231001 0.1256564 0.08769135 0.11883962 0.037997335 0.23978922 0.23730226
0.20187823 -0.048363913 -0.044448175 0.14390472 -0.13160007 -0.01586729 -0.12629595 -0.07606935
-0.013844746 -0.16863377 0.12309711 0.092385106 0.0671498 -0.2075555 0.12534374 -0.07466059
0.12466906 -0.173343 -0.17825116 -0.046398334 -0.07792218 0.14241157 0.17685948 -0.107111774
0.04605521 0.03646079 0.09785327 0.10425044 0.20014247 0.08700263 0.22672206 0.077684745
0.0059289588 -0.0003285141 0.081653304 -0.14240259 0.08952171 -0.050254304 0.15423375 0.19134663
-0.09260346 -0.13580859 -0.12706724 -0.04041459 0.019497972 -0.13048927 -0.18279202 0.040126637
0.16146585 0.05687476 0.071672365 -0.022617998 0.20870839 0.1652979 0.14618324 0.11664238
0.12209378 0.030540723 0.10562115 -0.21659955 -0.116002224 0.061425354 0.054604385 0.09276329
-0.20667017 -0.21624692 -0.016795373 -0.1822224 0.15373555 0.016259206 -0.08873121 -0.12265761
-0.1893447 -0.04237279 -0.093194984 -0.05400838 -0.06737639 -0.12507294 -0.22800735 -0.2686334
-0.24990743 0.04319141 -0.24365935 0.014696588 -0.16492605 0.043578256 0.0035415494 0.18466684
0.045900185 0.19976214 0.21834306 0.15298992 0.16795474 0.028271383 0.020286605 -0.016097704
-0.11368821 -0.13545056 0.124754146 -0.19670163 -0.012423476 0.020823132 -0.119001955 -0.057208475
0.050488193 -0.087795585 -0.09058664 -0.028062139 0.080761254 0.047734465 0.1261705 -0.14549752
0.015540458 -0.22390603 0.023766896 -0.09893186 -0.23362072 -0.0032366891 -0.042867996 -0.15885401
-0.23254398 0.11706162 -0.096492745 0.068703964 -0.09268238 -0.023906585 -0.06407244 0.037215527
0.07743662 0.14030583

h1.0.bias f4 [6]
00000000: 06bb 583e 2b19 1e3e fabb 903d c8b8 153e
00000010: b8c4 2cbd 8ee6 7c3e
0.21165094 0.15439288 0.07067104 0.1462127 -0.042179793 0.24697325

h2.0.weight f4 [12, 6, 3, 3]
00000000: 2a5b edbd 4527 db3d 4315 b83b c0af 8d3d
00000010: a940 043e a542 dbbc f6c4 e43d 22fb fe3d
00000020: 08c7 ac3c 2998 d83d 29fb 6a3d c440 3cbd
00000030: cc74 543e 1c73 143e cd03 d03c 612e d13d
00000040: 8bb0 d33d 1719 0b3d 6780 d53d 670c 9e3d
00000050: 8420 02be ca45 37bc 26f8 8a3c 1df6 3cbd
00000060: 00a7 fdbd 5570 f4bd a407 5839 4af6 d4be
00000070: 4231 95bd 7153 19be 87fc 1dbe 7847 35bd
00000080: 1c2f 0b3c de2d 50be 91ea 5a3d 93e8 33bd
00000090: ca7c 07be 3bc6 8ebe 780b a1be 0247 fbbd
000000a0: 6d36 30be 6408 10be 2df1 58be 1a16 3ebe
000000b0: 5336 a6bd 8250 30bc 0c49 113e 72ec cb3d
000000c0: dfcf 233e 2301 9a3d 5447 233e 074a 183e
000000d0: 917c 88bd ad5e 0d3e 992f 8a3d cc38 f2bd
000000e0: e80c 2c3c db07 9c3c 31d4 81bd 766b e0bd
000000f0: 6090 853c fc90 57bc df8d 9d3d 7555 073d
00000100: 44ad 953d 67fe 7bbc ea69 653e bc5c e2ba
00000110: ce16 453e a200 82bc 704e ce3a 5d46 353e
00000120: 7ede 643d d247 313d 63cf 8bbc 35e5 653c
00000130: 6357 443d 52ea da3d 8b71 ce3d 82ce 7cbc
00000140: f8ae 7ebd cf27 6bbe 664e 3a3d c93c 1c3d
00000150: d82f 683d b0e8 bbbd 17a5 e8bd c4c4 53be
00000160: 0160 f9bd 1541 3fbe 7706 18bd 89e7 d7bd
00000170: 45c9 af3d a2a0 473d 1cf3 9abc 37e3 fabd
00000180: 3a13 2f3c ded8 943d 34a3 a83d fd48 90bc
00000190: 85d2 083e 8e6a 1ebd 77df 423e 178c b73d
000001a0: bfcb 4b3d beb0 e33d 96ea 383d f45a 97ba
000001b0: 6ece 3b3e ef0e 30bd dfb6 233e 8922 003e
000001c0: e95b 813d 9446 093d d1e7 3d3c 542b 403e
000001d0: 5a8f d13b 1edc 8c3d fb0e 5bbd 87d0 cbbc
000001e0: db0b d83d 124d 243d 6b6b 583d c3f2 b4bd
000001f0: c92f 2c3d 5d96 7fbc a8b1 823d 5c68 0a3e
00000200: 7f90 293e 30b2 2c3e c4c3 313e f49d ef3b
00000210: a3f9 d83d 4085 be3d 75c7 fabb 4a6d 4c3e
00000220: 923a 213d 5999 a9bd dff6 ef3d e988 4fbb
00000230: 9dd0 b53d efb3 933d 14a4 e43d 8260 b63d
00000240: 3cc1 673e 0c07 493e 39f0 a23c 61e7 813e
00000250: fb2e 093d 80fb 763e f8cf 15bd c224 2b3e
00000260: 7f3d 653d 31fc 7a3d d1a9 79bc 84ac 193a
00000270: dbb7 d23d 6dff 04bc 3e75 80bd 38f8 793b
00000280: 2ee9 40bd c146 0b3d d345 e4bd 7c0c e2bd
00000290: 1c06 a3bb 39a2 40bc b23d bd3d 78da ad3d
000002a0: c121 553d 33e9 05be 5b52 343d 100f 0a3e
000002b0: 6479 bf3d e5e8 593d b97d 2e3e 3c9a 023e
000002c0: a8d3 e43c 2098 f13d daf4 fc3d 7f37 0d3d
000002d0: 4d3f b73d f5f4 603d 8d61 7c3d f9c6 f63c
000002e0: 59ca d53d cf11 853d b181 bc3d 653c e8bd
000002f0: 9855 e83d 223a bd3d f78f e43d 75f6 46bd
00000300: 4b3e eb3c 153b b2bd 8a23 a8bc c8e6 07bc
00000310: 784e dc3d fd6f d53c efec 26be df4f a2bb
00000320: 0dc8 aabc 0df5 8d3d 7fbf c83c 32da 55bd
00000330: 5d87 bd3d 5495 143e f468 033e 2478 dc3d
00000340: a6a9 ba3d 7fd1 ed3d a474 17bd 9c97 7d3d
00000350: 6fc5 e8bc 85af a63d a9f8 acbd 625b 163e
00000360: 2cdc 0ebd 94cf 45bd 3ea6 9cbd 6464 ccbd
00000370: 2841 85bd 345e 943d 7b6f 093e 20f9 743d
00000380: 6929 e33d aea9 d33d 729c a1bb 0601 93bd
00000390: da45 eebc ae86 283e 5951 dd3b b4d9 583e
000003a0: 2726 91bb b1dd 803a 70fe 283c d5d9 c93d
000003b0: 092e 863d ff77 943c a3c5 ea3d ad0f b83d
000003c0: 9b22 2c3e d932 2fbd 3caa f53d 8eac 60be
000003d0: 99b6 17be 9af1 41be a066 28bd 74d4 40bd
000003e0: 730f 9cbe 3f55 43bd 3772 6cbe 7459 05be
000003f0: a185 a33d 2b16 613e 52d5 5a3e 1729 453c
-0.11589654 0.107008494 0.005617769 0.06918287 0.12915291 -0.026765177 0.1117038 0.124502435
0.021091 0.10575897 0.05736843 -0.045960203 0.2074768 0.14497036 0.025392437 0.10213924
0.10336407 0.033959474 0.104248814 0.07717209 -0.12707716 -0.011186073 0.01696403 -0.04613315
-0.12385368 -0.11935488 0.00020602212 -0.41594154 -0.07284786 -0.14973237 -0.15428363 -0.04425761
0.0084951185 -0.20329997 0.053446356 -0.043922972 -0.13231197 -0.27885613 -0.31454062 -0.12269403
-0.17208262 -0.14065701 -0.21185751 -0.18563119 -0.0811583 -0.010761382 0.14188021 0.09957208
0.15997265 0.07519748 0.15945178 0.14871989 -0.06664384 0.13805647 0.0674736 -0.118272394
0.010501124 0.019046715 -0.063393004 -0.109579965 0.016304195 -0.013157126 0.076930754 0.033040483
0.073084384 -0.015380478 0.22403684 -0.0017270069 0.1924698 -0.015869442 0.0015739929 0.17702623
0.055876248 0.043281384 -0.017066663 0.014031698 0.0479349 0.10689224 0.1008025 -0.015430095
-0.062178582 -0.22964405 0.045484923 0.038143907 0.056686252 -0.09175241 -0.113596134 -0.20680529
-0.121765144 -0.1867717 -0.03711554 -0.10542209 0.08583311 0.048737176 -0.018914752 -0.12250369
0.010685736 0.07267927 0.082342535 -0.017612929 0.13361557 -0.038675837 0.19030558 0.08962267
0.049754854 0.11117695 0.045145594 -0.0011547492 0.18340465 -0.04298299 0.15987729 0.12513174
0.063163586 0.033514574 0.011590914 0.18766528 0.0063952627 0.068779215 -0.053481083 -0.024879707
0.10549136 0.040112562 0.052836817 -0.088353656 0.04203776 -0.015599814 0.063815415 0.13516372
0.16559027 0.16864848 0.17359835 0.0073125307 0.105944894 0.09302759 -0.0076531717 0.19963565
0.039362498 -0.08281202 0.11717009 -0.0031667298 0.088776805 0.07212054 0.11164108 0.08905126
0.22632307 0.19631594 0.019889938 0.2537184 0.03349207 0.24119377 -0.036575288 0.1671324
0.05596685 0.061275665 -0.015238241 0.00058621936 0.10288974 -0.008117539 -0.06272362 0.0038142335
-0.047097377 0.034003023 -0.111461304 -0.110375375 -0.0049750935 -0.011757427 0.09240283 0.08488935
0.052034143 -0.1307724 0.044023853 0.13482308 0.09349325 0.05320062 0.17040147 0.12754148
0.027932957 0.11796594 0.12351389 0.034476753 0.089476205 0.05492111 0.06161647 0.030124174
0.104389854 0.06497537 0.09204424 -0.11339644 0.11344451 0.092396036 0.111602716 -0.048574883
0.028716227 -0.08702675 -0.020524759 -0.008294769 0.10757154 0.026054377 -0.1630132 -0.004953369
-0.020847345 0.06931505 0.024505375 -0.05221004 0.09254334 0.14510089 0.12833005 0.107651025
0.09114389 0.11612224 -0.03697647 0.061912164 -0.028414456 0.081389464 -0.08445866 0.14683297
-0.03487794 -0.048293665 -0.07648896 -0.099800855 -0.06506568 0.0724453 0.13421433 0.059807897
0.11091883 0.10335098 -0.00493198 -0.071779296 -0.029086042 0.16457626 0.006754082 0.21176797
-0.004429597 0.0009831694 0.010314569 0.09856001 0.06551749 0.018123625 0.114634775 0.08987365
0.16810076 -0.0427731 0.1199536 -0.21940824 -0.14815749 -0.1893982 -0.041113496 -0.04707761
-0.30480537 -0.04768872 -0.23090445 -0.13022405 0.07984472 0.21981113 0.21370438 0.012033722

h2.0.bias f4 [12]
00000000: 37c5 a7bc b57d be3b 871e 893d 8c6f 02bd
00000010: a794 eebd a26f a13d 30a1 963d f44b e9bd
00000020: 257d c63c e0bc bebb dc5f ee3a ab67 0e3d
-0.020479782 0.0058133253 0.06695276 -0.03184466 -0.11649447 0.078826204 0.07354963 -0.1139144
0.024229595 -0.0058208555 0.0018186527 0.034766834

h3.0.weight f4 [18, 12, 3, 3]
00000000: 06ca 673d c563 0a3e 6c0d a13d 24f9 2f3e
00000010: 8f71 c43d 56a3 be3d f8da db3b 41a3 1f3c
00000020: bb99 ab3d 17fa 0b3e c39a 9f3d fa65 0b3c
00000030: bcdd 643d d968 783c ed6b 013e bdc1 f13d
00000040: 4097 d13d d772 973d 0424 30bd 9c49 e6bd
00000050: c29c c0bd 4d6c 4a3c 9ad6 963d f52e ae3c
00000060: 8f65 e8bd 9249 e7bc e64a 3abd 3446 423c
00000070: ed22 0a3d bfc8 92bd 805c e33c c190 62bd
00000080: 410a 623c e44c 9dbc b76a d2bc 24f4 b13d
00000090: e4fb 253e a359 793d b729 173e 7489 503e
000000a0: 6a7c 6a3e b0ff 7b3d 796e f63d a6ec c63d
000000b0: cd3d 173e ae9d 3a3e 4ac3 783e fb48 a23e
000000c0: 2437 74bb 1019 2f3e 3ffa 163e a22a b93c
000000d0: ee4b d63c 7e82 003e 15be 1d3e 25fb 473e
000000e0: 4a25 ae3d c817 18bd 825e 503d ff7d 0b3e
000000f0: d5ab 853d 5bd3 bdba 2169 9e3b 90f8 38bd
00000100: 186a bcbc 1e28 0a3b f429 80bd d14a c6bc
00000110: dc44 043e 11ac 18bd 11b7 133d d682 4c3d
00000120: 817d ac3d a88e 003e a284 1b3e 79f3 eabc
00000130: 4e73 103d 6861 113e cc39 563d c908 fa3d
00000140: e42e 1fbc 9041 3c3d cc13 963d e9c2 853e
00000150: a84e 83bd ce2e 783e 4474 733e 1468 1dbd
00000160: 0f98 463d 5ce0 003e 36c4 3d3b 133f 913d
00000170: 6624 8a3d 3e9e 883d 8702 c93c 5f8c d5bb
00000180: d981 ab3d 4e6a c93d eb25 a63c 8d2d ecbd
00000190: 0ee1 0a3d de9e bdbd 24bd 893d 7654 ca3c
000001a0: e686 773d b435 693c 95a8 d6bd d98b 02be
000001b0: 484a 063d 13a7 e8bc 7f3e a2bc fdcd 7f3d
000001c0: 28d4 c4bc efb8 cabc 8841 7e3c 1db6 0c3e
000001d0: 2867 27bb dc3a 673e a2cc 8f3e 04cd 483e
000001e0: 457e 113e c185 5c3e e800 493e 7e46 af3d
000001f0: 342b 0a3e b03a f23d 25dd 803d 78a3 273b
00000200: 4378 fe3d 37bd c13d 73a5 c03d a258 063d
00000210: 5235 d23d 16b3 9ebb bf8c 2ebd 88f0 c73d
00000220: a346 fd3d 4f07 873d ed82 4c3d 7e1c 60bd
00000230: 032e f23d e9ca 51bd e5cc fc3d e62d 163d
00000240: 2332 d63d 1890 76bd d2df 4f3d 643c 2bbd
00000250: a3a6 14bd 8f5b 173d 3f8a e03c 7cb3 92bd
00000260: d5e6 c23c 317b a3be 751d 43be c681 38be
00000270: 884f ddbd 5fa7 54be bf31 f3bd 7721 8abb
00000280: 9aa4 cdbd c18b dabd ae3e a7bc 3260 10bd
00000290: 3b02 043d 6c8a e03a 68fa 01bd 7789 b83d
000002a0: 2891 37bd ea43 91bc 4d3c 703d 8d4f a53d
000002b0: e8ca 673d 9b78 963d f6ae dd3d 0722 fd3d
000002c0: 2dfd 053e c34b 843d d0a0 95bb 5917 6c3d
000002d0: ec2d 7cbd dade 453d 5ad6 ed3c 4de1 16bc
000002e0: 240b f13c 6032 ab3d bdeb 3abd 79ca 813c
000002f0: bf49 0fbd c7c0 273d 6445 e73d 16cf 303e
00000300: 4ff7 95bd f675 0f3e 3c44 9b3d fbf2 8ebd
00000310: b98b 243e c4b2 c63d 61bc 3fbc fa1e 353d
00000320: b019 1aba 91fa b63d 2ff1 f83d b18e a73d
00000330: 8dc8 87bd 0db9 bc3d 6d73 b73d 1bad 06bc
00000340: d97d 40bd 1c07 ab3d 230d 123d 2b44 953d
00000350: f54c a73d b694 2dbd 65da 6f3d 3411 b93d
00000360: c0b7 b13d d9ad 133d 10ae c8ba 29c7 723d
00000370: 0eb4 173e 2b32 0c3d 6884 2a3e 3c29 543e
00000380: 6f19 ab3d f067 e33c 577b ac3d 3df8 203d
00000390: 60bb 113e 4a6b 1e3e 7559 6c3d ab89 3abd
000003a0: 4ec8 523d 8792 843d 0931 26bc 74e7 82bd
000003b0: 17c1 b3bd 931f b3bd 4ecc 0ebd d37f 6d3c
000003c0: ee17 b1bd 2caf debb a0f5 863d 6125 9abd
000003d0: 5903 a33c e12f aa3d a628 e43d da86 fe3c
000003e0: 754a 313c 78a6 863d d777 923d 2807 b53c
000003f0: 7bce 833c 8543 103e 843e ae3d a56f 213e
0.05658915 0.13514622 0.07863888 0.17184883 0.09591972 0.093084976 0.0067094527 0.009743513
0.08378931 0.1366962 0.0779319 0.0085082 0.055875525 0.015161716 0.12638827 0.11804531
0.10233927 0.07394951 -0.043003097 -0.112445086 -0.09404899 0.0123549225 0.07365151 0.021262625
-0.11347496 -0.028233323 -0.045481585 0.011857558 0.033724714 -0.071671955 0.027754068 -0.05531383
0.01379639 -0.019201703 -0.025685651 0.08689144 0.1620937 0.0608765 0.14762007 0.20364934
0.22899023 0.06152314 0.1203279 0.09713106 0.14769669 0.18224213 0.24293247 0.31696305
-0.0037264312 0.17099404 0.14743899 0.022603337 0.026159253 0.12549779 0.15404542 0.19529398
0.08503206 -0.037132055 0.05087138 0.13622282 0.06526915 -0.0014482545 0.0048343097 -0.045158923
-0.022999808 0.002108104 -0.06258002 -0.024205597 0.12916893 -0.03727347 0.036063258 0.049929462
0.084223755 0.12554419 0.15187314 -0.02868055 0.035266213 0.14197314 0.052301213 0.12208707
-0.009715769 0.045960963 0.07327995 0.26125267 -0.06411487 0.24236605 0.2377482 -0.038429335
0.048484858 0.12585586 0.0028956062 0.070921086 0.06745224 0.06670807 0.024537338 -0.0065169777
0.08374376 0.09834729 0.020281753 -0.115321256 0.033906035 -0.09258817 0.06725529 0.024698477
0.060431384 0.014233995 -0.10481373 -0.1274866 0.032785684 -0.02839998 -0.019805191 0.062452305
-0.024026945 -0.024746386 0.015518554 0.13741346 -0.0025543664 0.22581047 0.2808581 0.19609457
0.14208324 0.21535398 0.19629252 0.08558367 0.13493043 0.118276 0.0629218 0.0025579613
0.12425282 0.09459918 0.09406557 0.03279937 0.10264076 -0.004843126 -0.042614695 0.097626746
0.123669885 0.06593191 0.049929548 -0.054714672 0.11825182 -0.0512189 0.12343768 0.036664866
0.104587816 -0.060196012 0.05075056 -0.04180564 -0.03629173 0.03695255 0.02740967 -0.0716314
0.02379171 -0.31929925 -0.19054206 -0.18018255 -0.10806185 -0.20766972 -0.11874723 -0.004215415
-0.10041161 -0.10671187 -0.02041563 -0.03524799 0.03222869 0.0017131097 -0.031732947 0.09010594
-0.044816166 -0.01773258 0.058651257 0.08071814 0.05658999 0.073472224 0.10824387 0.12360006
0.1308486 0.06459763 -0.0045662895 0.057639454 -0.061567232 0.04830823 0.029032875 -0.009208989
0.029424258 0.08359218 -0.045634974 0.015843617 -0.03498244 0.04095533 0.11292532 0.17266497
-0.07322561 0.14009842 0.07581374 -0.069799386 0.16068925 0.097020656 -0.011702628 0.044218995
-0.00058784615 0.089345105 0.12155377 0.08181513 -0.06630049 0.09214983 0.089575626 -0.0082199825
-0.046995018 0.083509654 0.03565706 0.07288393 0.08168975 -0.04237815 0.058557887 0.09036484
0.08677626 0.036054466 -0.0015310664 0.059271965 0.14814779 0.03422753 0.16652071 0.20718855
0.083544604 0.027759522 0.08421963 0.03929924 0.14231634 0.15470615 0.0577025 -0.045541447
0.051460557 0.064732604 -0.010143527 -0.063918024 -0.08777063 -0.08746257 -0.03486281 0.014495808
-0.08647142 -0.0067957845 0.06589818 -0.07526661 0.019899057 0.083099134 0.111405656 0.031070162
0.010820975 0.0657472 0.07151764 0.022098139 0.016089668 0.14088257 0.08508018 0.15765245

h3.0.bias f4 [18]
00000000: 2fda c53c 19ca 263d 59d4 10bd ceb5 cdbd
00000010: 6862 ca3b e282 b4bd d573 393d 2138 45bd
00000020: 21a7 cbbc af52 8a3d cfa1 7f3d 4949 a23d
00000030: 190d 013d af20 ee3d d0ed cfbc 8d89 cebd
00000040: d877 bc3d ffd6 79bd
0.02415189 0.04072008 -0.03535876 -0.10044442 0.0061762817 -0.088140264 0.04527648 -0.04814923
-0.024859967 0.06754052 0.062410172 0.07924134 0.03150663 0.11627328 -0.025381953 -0.100848295
0.09202546 -0.060996052

h4.0.weight f4 [24, 18, 3, 3]
00000000: 5e2c 753d 5304 0a3d fbfb 2f3b 86a8 983c
00000010: 6e89 b63b 2303 b23d 5fc3 88bb 69b9 8f3d
00000020: e561 0b3d 1861 da3c 1480 623c 69d3 bf3d
00000030: 7d0f 16bc 0f6d c23c a647 7b3d 110c bc3c
00000040: e2c7 753d 0763 543d c796 953c b32f 843c
00000050: c4c8 b33d 94c3 ee3c 1bc6 4a3d 0bea 543d
00000060: 1896 47bd e62c b33d 8880 623d 83e6 233d
00000070: 0055 273d 31c3 6abc b427 aab8 b423 0e3d
00000080: 5e44 223d d55a 1b3c 2f08 b7bb 3871 02bd
00000090: c2f4 8b3d 3e06 a8bb bb06 c43d e931 c1b9
000000a0: ad0c 903d 38a0 f53d 6374 4a3d 606f 60bc
000000b0: 27bf ebbc 9ac0 233e 465c 1a3e 64f0 003d
000000c0: 3549 493e 102e 143e 6001 e53d 8484 b13d
000000d0: 1e6a 0c3e ef46 233d 3d17 8f3b 58ac 18bd
000000e0: 3ae7 12bd 279a 10bb 1713 803d 580d 333d
000000f0: a718 02bb 3afd f7bc f490 c43d 64c9 a8bc
00000100: 9f32 013d 981a 79bd 4ed2 77bd b575 eabc
00000110: 1d74 ae3c afd4 66bc 54a9 87bd 6460 bebc
00000120: 8077 e43d 232e bb3d 16db 88bb ba7a 8b3d
00000130: 6aac ce3c 20ae 853c 1ecb 8cbb 739b 13bc
00000140: e30d cb3d 46ed d13d e162 4a3d 34c3 9d3d
00000150: d4a2 963c bb38 98bc 2744 8ebb c5b5 063c
00000160: 22bc e43c bb3d 973d 7e6a 933d 2583 ac3d
00000170: 22f4 48bd 875c 5b3d c09e ec39 c5ad c93b
00000180: 2ea1 203d e293 0b3c 8001 d5bc a8a7 af3c
00000190: 900b 9e3d 4e29 7dbd 1e5f b93d b906 603d
000001a0: 0ead 37bc f2a0 a53d 55dc 303d ac4a 833d
000001b0: e9ab d13d f341 1bbd 1b90 6e3d c405 783d
000001c0: e1a4 b63d 0a8d c03d 2479 61bb 7785 a9bb
000001d0: 5816 493d e1b7 66bd 5bb9 f4bd e2e1 1fbe
000001e0: 10ee d6bd 4365 0abc 2752 69bd 80ad c3bd
000001f0: 62d8 64bd 3949 0dbe 4a8f 963c 74ae ee3c
00000200: 8ece 493b a90e cd3d 5c74 d03d efee 6e3c
00000210: 3beb a43d 8835 c23d 3320 803d c215 dc3c
00000220: 5ee6 52bd 0e47 10bd da2e 7c3d 0dae 34bb
00000230: 3b97 e5b9 547f afbb 567a 113d 4a58 a93c
00000240: 595f 33bb ba88 21bd de77 793c 08e6 09bc
00000250: 62c2 073d 2f93 3fbd 45c6 9d3d c844 f0bc
00000260: 7c67 c63d b9ef d33d aff0 153c ee7b a03d
00000270: c604 1f3d 10b6 773d 5868 e5bb 8247 613d
00000280: 3216 0cbd f3ba 463d 231a e4bc b0ad 153d
00000290: fc51 9dbc f71b f5bc 789f f03d 42ab 5f3c
000002a0: 9fc1 703d 0904 d33d 232d 993d 49fa b73d
000002b0: dd09 69bd 5fe4 3ebd fb99 0b3d 9bc1 d4bb
000002c0: 5f86 af3b 3abc a63d d48a e43c 0000 b83c
000002d0: a528 153d 6a0c 9f3d 64f0 efbb dfc8 673d
000002e0: 8094 833d efa2 e53d 92e7 7e3d 0657 973c
000002f0: c085 403d 539e ebbb 887a 6bbd 4825 5dbc
00000300: 9e03 98bd aa82 dcbc 785c e0bc 6913 98bd
00000310: cd0f 07bd 5239 9bbc fe55 2c3d f259 4c3c
00000320: 9ef4 e93d 895c b03d d399 333e ab55 d33d
00000330: 5898 063c e73d dc3d cb13 d6ba 1e29 1c3e
00000340: 7e44 6e3e f085 303e a747 823e af93 733e
00000350: eed0 093e a774 173e 47e9 183e 1f8e 633d
00000360: 9a45 d13d ec6a ebbc 8a17 e6bc 17e3 c43d
00000370: 572c c0bc 2764 253d 4ee2 cd3c 887e 233d
00000380: dc4b 223a b78f 7b3d 8b28 45bd faad 6abd
00000390: e049 883d 0553 0c3c 079a bbbc 4087 56bd
000003a0: 9f31 27bd 2b70 093d a44a 82bc 17a7 ef3c
000003b0: 3f57 973b a7e4 a33d c24a 0cbc 37b3 a33c
000003c0: a397 3e3d 262b 1abd 63ce d93d f381 093d
000003d0: 8673 a43b f1ba 0bbc 9c00 bd3d 44a7 653c
000003e0: b32c 5a3c fc2f 9c3c 4654 9c3d bd1e 37bd
000003f0: a3d8 d3bb 8617 a83d 448f 533d 491e a7bc
0.059856765 0.03369553 0.0026853073 0.018635046 0.005570582 0.086920045 -0.0041736807 0.07017786
0.034028906 0.026657626 0.0138244815 0.09366495 -0.009158966 0.023733644 0.061347626 0.022954972
0.060005076 0.051852252 0.018260373 0.016136026 0.087785274 0.029145993 0.049505334 0.051981013
-0.048727125 0.08748798 0.05529836 0.040014755 0.040852547 -0.014328764 -8.113627e-05 0.034702018
0.03961598 0.009482105 -0.0055856924 -0.031846255 0.06833793 -0.0051276973 0.09571596 -0.00036849015
0.07033668 0.1199345 0.0494274 -0.013698429 -0.028777672 0.1599144 0.15074262 0.031479254
0.19656833 0.14470696 0.11181903 0.086678535 0.13712355 0.03986257 0.004366784 -0.037273735
-0.035865046 -0.0022064538 0.06253641 0.043713897 -0.001985112 -0.030272115 0.0959796 -0.020603843
0.031542417 -0.060816377 -0.060503297 -0.02862058 0.021295602 -0.014088794 -0.06624094 -0.023239322
0.11155605 0.09139659 -0.0041765077 0.068105176 0.025228698 0.01631838 -0.0042966744 -0.00900923
0.09914758 0.102503344 0.049410705 0.07703248 0.01838819 -0.018581739 -0.0043416205 0.008222048
0.02792174 0.07384821 0.07198046 0.08423451 -0.04906095 0.053555038 0.00045131706 0.006154748
0.039216213 0.008519145 -0.026001692 0.02144225 0.07717049 -0.06180697 0.09051345 0.05469391
-0.011210693 0.080873385 0.043178875 0.06410727 0.102378674 -0.03790469 0.0582429 0.060552374
0.08918167 0.09401901 -0.003440448 -0.005173381 0.049093574 -0.056327704 -0.11949416 -0.15613511
-0.104946256 -0.008446994 -0.056963112 -0.09554577 -0.05587042 -0.13797463 0.018378872 0.02913592
0.0030793282 0.10012562 0.10178444 0.014583333 0.08052679 0.094828665 0.062561415 0.026865844
-0.051489227 -0.035224013 0.06156812 -0.0027569563 -0.0004379096 -0.005355755 0.03551706 0.020671982
-0.0027370064 -0.039437033 0.0152263325 -0.00841666 0.033144362 -0.046771225 0.077038325 -0.029329672
0.09687707 0.10348458 0.009151622 0.07836138 0.03882291 0.060476363 -0.007000964 0.054999836
-0.034200855 0.048518132 -0.027844494 0.036542594 -0.019204132 -0.029920561 0.11749166 0.013651671
0.0587784 0.10303504 0.07479312 0.08983285 -0.056894172 -0.04660451 0.034082394 -0.006492806
0.0053565945 0.0814137 0.02789823 0.022460938 0.036415715 0.0776604 -0.007322358 0.05658805
0.064248085 0.11212718 0.06223256 0.018474113 0.047002554 -0.0071905046 -0.0574899 -0.013497658
-0.07422565 -0.026917774 -0.027387843 -0.07425577 -0.032974053 -0.01894823 0.042074196 0.0124726165
0.1142361 0.086114 0.17539148 0.10319074 0.0082150325 0.107539944 -0.0016332803 0.1525006
0.23268315 0.17238593 0.2544529 0.23786806 0.13458607 0.14790593 0.14932738 0.05555546
0.102183536 -0.028737508 -0.028087396 0.096136265 -0.023458643 0.040378716 0.025132325 0.03991559
0.00061911135 0.061416354 -0.048134368 -0.057294823 0.066547155 0.008564715 -0.022900594 -0.05237508
-0.040818807 0.033554237 -0.015904732 0.02925448 0.004618555 0.08002596 -0.0085627455 0.019982917
0.04653133 -0.037638806 0.10635068 0.033571195 0.0050186543 -0.008528457 0.09228632 0.01401693
0.013316321 0.01906585 0.076332614 -0.04470705 -0.006465034 0.08207612 0.0516503 -0.020400183

h4.0.bias f4 [24]
00000000: 9131 7b3d 4364 a83d 4010 a33d 4a6d 263c
00000010: 7e64 13bd f1f8 eb3c b559 82bc cb2f dbbc
00000020: b5d5 b9bc a5d9 d3bc 31b6 52bc 7acd 49bd
00000030: 16c9 86bc 24f6 64bd 67c4 10bd fdb1 933c
00000040: ad32 6bbd 3ec3 4a3d e44d d33c f394 c33c
00000050: d3cc 673d 5535 86be 7adb c7bc 37d5 3d3d
0.061326567 0.082222484 0.07962084 0.0101578925 -0.03598451 0.028805228 -0.015911916 -0.026756188
-0.022684911 -0.025860617 -0.012860821 -0.049268223 -0.016453307 -0.0558988 -0.035343554 0.018029207
-0.057421375 0.049502604 0.025793977 0.023874735 0.05659182 -0.26212564 -0.024396647 0.046345916

output.0.weight f4 [1, 24, 3, 3]
00000000: 9723 f63c 7975 cb3d 9ced 1b3d 123d 993d
00000010: cdf8 d9bb a633 bd3d db70 a13d 1d72 46bc
00000020: 0cef 933d 5f79 8fbc 8add 193d 8609 0e3d
00000030: 9f15 793d 0b3b 143d 2f88 a83d f5bd 263d
00000040: 2cdd b63d b81a 0a3d 06c8 d6bd 33a0 18be
00000050: 59fa 00be 0537 17be 2c54 c1bd 3646 e2bd
00000060: 1371 1fbe b765 0dbd 0c87 16be ed34 bbbc
00000070: 0d8f 1cbb 546a 003c 46a0 113e 9f5d 433e
00000080: c495 293c 2139 f03c a822 653e 5d60 1d3d
00000090: b779 f13c 4187 3c3c 5ee7 1f3d b81c 083d
000000a0: d147 973d 9201 e83c 971e b23c 6ae7 f53d
000000b0: a665 f43d 9f6f 24bd 7a48 4b3e 88f2 053e
000000c0: df30 5a3c 4678 633e f026 373e 3d80 29be
000000d0: e5b2 37bc d5ea 91bb 22b0 cb3d be7a d33d
000000e0: ee76 973d 85fe 093e 1043 4e3e 3ec2 dc3d
000000f0: cf56 323d 4823 403e 5026 f23d 80c0 13be
00000100: 7c7a fdbd 1f3b adbd 8d89 02bd 9ecd f2bd
00000110: eeaa 05be 3fb9 50bd a64c 06be f937 fbbd
00000120: 246a 323c 0619 413d 6814 b13d bb80 193c
00000130: 7be2 013d 7e14 4a3d 5de6 f23c 5772 513d
00000140: dbab a33d e4c1 abbd 1ab0 0d3d 0baf 1c3e
00000150: 9c46 2abe df3a ab3d f613 0e3e 010d 15be
00000160: 8fb1 b7bd 22ca 4a3d f9eb 3f3d 1f7c 513d
00000170: efa5 31bd af09 953d 974a a53b c109 de3c
00000180: d947 8d3c 6dbb f53d f5ac 9a3d 9a15 ed3c
00000190: f870 393d 13bc bd3d c767 643d 0eaa ba3d
000001a0: ab36 503d 9f39 723d f6cf 0d3d ecc7 ecbb
000001b0: 37e1 13bd b73a b5bc 12a4 803d 4692 7fbd
000001c0: b553 63bc 96be 16bd 202e 80bb 968f d7bc
000001d0: f018 823c e92d ab3d 7d18 a93d b144 373e
000001e0: 07a4 c33d eadc 383e 43f4 483e 2f6e 39bd
000001f0: 34bc f53c 221a 983d 09f6 f83d c5c5 263e
00000200: a0f4 063e 02a1 863d 554b d93d 2859 103e
00000210: d376 83bd a71e 343d 93e9 143d e18d 623c
00000220: 1bdf 623d 80e9 17bc a36f c03d 38a0 783d
00000230: ae9f 803d a4ba 813d 4a3e 333d 5650 9a3d
00000240: b9cf 43bd 56a1 efbc abfd 13bd 15cb b43c
00000250: 6c8a 54bd bf63 5fbd f386 5ebd e5eb 263d
00000260: eb9f 6abd cffb f9bc c970 f23b 4368 b53d
00000270: bc9f d73b 1a7f ad3d c31a 86bc d0ef 7d3d
00000280: 0df0 8cbc 75c6 403d 145e 823d 8a62 323d
00000290: 5feb 9f3b dad4 543d c647 8a3d 1cf3 c23d
000002a0: ca55 fabc 12fb 243d f958 743d 6e0d f73b
000002b0: 5236 c83c 806f 693d 0c25 5c3d b10d d03d
000002c0: e423 32bc 1312 323c 0436 113d 13ec 953c
000002d0: e0ec b93c d3ba a03d b07c 893c 6003 a53d
000002e0: 18d6 203d 2094 853c f1e9 aa3d 61b4 983d
000002f0: 01ac d23c 099b 89bd ab3d b3be 8094 03bf
00000300: 4d5f 223e 4096 22be 607b e9be 81a6 77be
00000310: b036 70be 237f f0be bb1b 763d 6af5 973c
00000320: add6 953d 2f85 0d3d d59f 8f3d afaf b73d
00000330: c279 973d 60a0 bd3c c665 f53c 568e f0bc
00000340: 1bac 3c3e bb6e 5a3e 698a a3bb bb4b 443e
00000350: e5bf 593e 660d c53c cbe3 313e ac1e b13d
0.030046267 0.099345155 0.0380684 0.07482351 -0.006651974 0.09238367 0.078828536 -0.012112168
0.07223329 -0.017513929 0.03756479 0.03467705 0.060811635 0.03618912 0.082291 0.0407085
0.08928904 0.033716887 -0.1048737 -0.14904861 -0.125955 -0.14767082 -0.09439883 -0.11048548
-0.15570478 -0.03452083 -0.14699954 -0.022852385 -0.0023888976 0.007837851 0.14221296 0.19078682
0.010350648 0.029324116 0.22376502 0.038421977 0.029476983 0.011506856 0.03903901 0.033230513
0.07386745 0.028321061 0.021743102 0.12007029 0.119334504 -0.040145513 0.19851866 0.130808
0.013317316 0.2221385 0.17885947 -0.16552825 -0.011212085 -0.004453043 0.09945704 0.103261456
0.07395731 0.13475998 0.2014277 0.10779236 0.04353982 0.18763459 0.11823714 -0.14428902
-0.12376878 -0.08458542 -0.03186946 -0.118556246 -0.13053486 -0.050957914 -0.13115177 -0.12266535
0.010889564 0.047143005 0.0864647 0.009369071 0.03171013 0.04933595 0.029650861 0.051134434
0.07991763 -0.08386591 0.03459177 0.15301149 -0.16628498 0.08360838 0.13874802 -0.14555742
-0.089694135 0.049509175 0.0468559 0.05114376 -0.043371137 0.072772376 0.005044292 0.02710426
0.017246174 0.11998639 0.0755252 0.028940964 0.04527375 0.09264388 0.055763032 0.091144666
0.050833385 0.059136983 0.034622155 -0.007225981 -0.036103453 -0.022122724 0.06281294 -0.062395357
-0.013874938 -0.03680285 -0.0039117485 -0.026313584 0.015881032 0.08358366 0.08256624 0.17897297
0.0955277 0.18053022 0.19624428 -0.045271095 0.029996969 0.074268594 0.121563025 0.1628638
0.13179255 0.065736786 0.106100716 0.1409651 -0.06419148 0.043974545 0.036355566 0.013827772
0.05538855 -0.009271979 0.09396293 0.06069967 0.062804565 0.06334427 0.043760575 0.07534854
-0.04780552 -0.029251736 -0.03613059 0.022069493 -0.051889822 -0.054538485 -0.054327916 0.04075231
-0.057281416 -0.03051558 0.007398699 0.08857777 0.006580321 0.08471508 -0.016370183 0.06199628
-0.017204309 0.047064263 0.063656 0.043551005 0.0048803533 0.051960804 0.06751971 0.09519026
-0.030558486 0.0402785 0.059655163 0.0075394427 0.024439964 0.0569911 0.05374627 0.101588614
-0.010872815 0.010868567 0.035451904 0.018301046 0.022695959 0.07848134 0.016783088 0.08057284
0.039266676 0.016305983 0.08345402 0.074562795 0.025716783 -0.06719024 -0.35007986 -0.5139847
0.15856667 -0.15877628 -0.4560194 -0.2418461 -0.23458362 -0.46971998 0.06008504 0.01854964
0.07316337 0.034550842 0.070129074 0.08969056 0.0739627 0.023147762 0.029955756 -0.029364746
0.18425028 0.21331303 -0.004990865 0.19169514 0.21264608 0.02405424 0.17372052 0.08648428
