models/projector_tanh.pt (torch, 31251 bytes, 9 tensors)

h1.0.weight f4 [6, 3, 3, 3]
-0.06776089 -0.1253618 0.15229672 -0.12778181 0.105015755 -0.19847208 0.024639362 0.16191402
0.111710146 -0.03829914 -0.08863301 -0.07658511 0.017604765 0.07031393 0.18771756 0.19562608
0.18066216 0.004834175 -0.12110579 -0.042326275 0.018568534 0.10328046 0.14754485 -0.120128706
0.17709811 -0.14894967 -0.15235874 -0.102224186 0.1318829 0.06097265 0.12353639 0.037045617
0.13573976 -0.096393906 -0.1262003 -0.20672388 0.21905263 0.13951392 0.25934318 -0.120675184
0.121060245 -0.0556657 0.2329348 0.008764324 0.24129893 0.061183102 0.01579889 0.06286462
-0.012592133 -0.16114655 -0.17445083 0.15712382 0.027979909 -0.097355396 -0.02731903 0.10315986
0.034847964 0.14006746 0.17398967 0.19748926 0.0013402976 0.081484355 0.22465779 0.1690345
0.18103601 -0.1448114 -0.12407528 -0.12238777 -0.042269703 -0.004104698 -0.1343513 -0.14875656
-0.0030939393 -0.12323662 -0.0052492865 0.14525326 0.09554784 -0.1187443 -0.0472175 0.18624212
0.18807213 -0.053328883 -0.28182098 0.048211325 0.018390613 -0.23094936 -0.15897103 -0.18531615
-0.25922212 0.04715143 0.049667474 -0.112688 -0.05789293 0.18118553 -0.043206044 0.122373916
0.011707635 -0.13451461 0.15927592 0.12991779 -0.08629425 -0.14236891 0.114594266 -0.159432
0.17566817 -0.1922638 0.11079452 0.029825935 0.13671216 0.18731846 0.025473002 -0.11455633
-0.043507155 0.018968942 0.26020947 0.24706478 0.15966953 -0.14741391 0.08459563 0.098859705
-0.19486488 0.0184931 -0.15549578 -0.11830463 0.13366222 0.06139142 -0.10645006 0.14294195
0.024712756 -0.049509082 -0.2002113 0.022380712 -0.18416426 -0.11231431 -0.14828159 -0.082613654
0.116605274 0.15266715 0.16640298 0.015685124 0.24783395 0.17581224 0.18086615 0.058644716
0.11970575 -0.18285085 -0.018782875 -0.1359939 -0.20798251 0.071283236 -0.14781375 -0.08350264
0.14590418 -0.077089325 0.08904676 -0.0068214694 -0.15832067 -0.1789701 -0.17742705 -0.14068377
-0.020785129 -0.14036901
00000000: 39c6 8abd d85e 00be acf3 1b3e 3cd9 02be
00000010: 8012 d73d 443c 4bbe 7dd8 c93c cacc 253e
00000020: 4ac8 e43d 8fdf 1cbd 3985 b5bd a7d8 9cbd
00000030: de37 903c c000 903d 0839 403e 3452 483e
00000040: 80ff 383e 0068 9e3b 5006 f8bd 515e 2dbd
00000050: 0a1d 983c b584 d33d ff15 173e 0a06 f6bd
00000060: 3559 353e 4386 18be ee03 1cbe ea5a d1bd
00000070: 500c 073e 75be 793d a600 fd3d 25bd 173d
00000080: 5dff 0a3e 2b6a c5bd a73a 01be 6daf 53be
00000090: 554f 603e bddc 0e3e a1c8 843e 8d24 f7bd
000000a0: 6fee f73d b801 64bd 7686 6e3e 3d98 0f3c
000000b0: 1117 773e 229b 7a3d ac6c 813c 2abf 803d
000000c0: 3c4f 4ebc 9a03 25be 3da3 32be 11e5 203e
000000d0: 1f36 e53c 4462 c7bd 29cc dfbc 7a45 d33d
000000e0: bdbc 0e3d d86d 0f3e 592a 323e a03a 4a3e
000000f0: edac af3a 45e1 a63d b10c 663e 6117 2d3e
00000100: 8161 393e 7149 14be 2e1b febd 70a6 fabd
00000110: ff22 2dbd b480 86bb 6393 09be a453 18be
00000120: b0c3 4abb 7b63 fcbd 3502 acbb 45bd 143e
00000130: 96ae c33d 3630 f3bd 2367 41bd 41b6 3e3e
00000140: fb95 403e 636f 5abd d74a 90be 3d79 453d
00000150: e9a7 963c fd7d 6cbe 4dc9 22be 84c3 3dbe
00000160: c3b8 84be dc21 413d 1f70 4b3d f7c8 e6bd
00000170: 2321 6dbd b388 393e d2f8 30bd 2d9f fa3d
00000180: 61d1 3f3c 33be 09be 3a19 233e 2b09 053e
00000190: 0abb b0bd 28c9 11be 66b0 ea3d 2442 23be
000001a0: 5be2 333e cde0 44be 3de8 e23d 8555 f43c
000001b0: 46fe 0b3e 69d0 3f3e c2ac d03c 829c eabd
000001c0: 8f34 32bd c164 9b3c 2d3a 853e 8dfe 7c3e
000001d0: 6980 233e acf3 16be 7940 ad3d f576 ca3d
000001e0: a98a 47be d77e 973c 493a 1fbe b349 f2bd
000001f0: c0de 083e 9275 7b3d 7d02 dabd 605f 123e
00000200: 6872 ca3c 09ca 4abd 3104 4dbe c157 b73c
00000210: 8e95 3cbe 0c05 e6bd 21d7 17be 5931 a9bd
00000220: bfce ee3d c754 1c3e 8b65 2a3e 177e 803c
00000230: 2fc8 7d3e 2008 343e fa34 393e 7135 703d
00000240: 4a28 f53d 413d 3bbe 8bde 99bc fc41 0bbe
00000250: 5ef9 54be f2fc 913d 7d5c 17be 6f03 abbd
00000260: e867 153e 02e1 9dbd 265e b63d a286 dfbb
00000270: d01e 22be f043 37be 70af 35be 680f 10be
00000280: 9345 aabc e5bc 0fbe

h1.0.bias f4 [6]
-0.16844213 -0.044128053 -0.22468561 0.022148035 0.25956574 0.2351126
00000000: 187c 2cbe 9ebf 34bd fc13 66be cc6f b53c
00000010: cde5 843e 5bc1 703e

h2.0.weight f4 [12, 6, 3, 3]
-0.03377047 -0.15582508 -0.16943233 0.050609726 0.054645326 -0.12500739 -0.026681792 -0.025812246
0.012506088 0.0122954855 -0.16208674 -0.09770455 0.03197809 -0.14403218 0.022643857 -0.09220616
-0.052838523 -0.083394766 0.027802149 -0.05921521 0.019837648 -0.12820724 -0.029058438 0.08794748
0.044503007 -0.013723707 -0.06982663 -0.064297974 0.09150286 -0.12957858 -0.06544943 -0.0900062
-0.06640759 -0.019275734 0.13441473 -0.079507165 0.09358771 0.1809899 0.15107897 0.05234583
0.10581066 0.15316598 -0.058982957 -0.044992015 0.09470385 0.0077328035 0.0908008 0.088574745
0.12824905 0.01860096 0.16945647 0.019845048 0.0037633951 0.08371464 -0.05935022 0.12542011
-0.061411437 0.08417607 -0.048681013 0.07287884 0.03041441 -0.025689512 -0.06145377 0.08995209
0.15580943 0.083644554 0.13925329 -0.09625444 -0.06833324 0.0967188 0.026715616 -0.08226343
-0.12833221 0.14482754 0.14180799 0.017742842 0.0652226 -0.096613675 0.062852085 0.07217717
0.096693546 -0.12710819 0.04977896 0.017057758 0.08175925 -0.14065965 -0.0054635033 0.029669207
-0.13525335 -0.042560276 -0.111541614 -0.12025971 0.13137679 0.06704708 -0.06669814 -0.009808249
-0.13820603 -0.03832231 0.050277125 -0.07439781 -0.081197426 0.037525993 0.08399744 0.1266444
-0.08797089 -0.089451626 -0.08104371 -0.049062535 0.11213806 0.00473883 -0.03308534 0.04837411
-0.03241304 -0.11346145 0.09789405 -0.0017913193 -0.07174034 -0.08611625 -0.07376312 0.029931251
-0.012081165 -0.020072749 0.08951736 0.07500316 0.13908541 -0.020055573 0.19443934 0.20461546
0.037122563 -0.035289336 0.17152844 0.12381359 0.1101881 0.09408122 0.13241383 -0.22161144
-0.08113566 -0.18932109 -0.19235443 -0.05165028 -0.100164905 0.05589095 -0.14637032 -0.037666105
0.13528208 0.19825907 0.16687125 -0.05930304 0.07639471 0.0018161305 -0.10291096 0.010271268
0.05545993 0.11844649 0.23532645 0.11707551 0.15408629 0.22497042 -0.011916324 0.021021638
0.18436897 0.0040388275 -0.07144883 -0.169351 -0.19701543 0.00063477166 -0.11669022 0.024424732
0.115429655 0.20626046 0.17831706 0.13411433 0.07634417 0.21651459 -0.072721556 0.0065460387
0.15365979 0.07067449 0.11013291 0.1301813 -0.061186183 -0.17428012 -0.09279604 0.06634194
0.017444685 -0.12257541 -0.08903994 0.12988912 0.093422666 -0.058837183 0.033576332 0.15119301
0.23039855 0.05509176 0.11202865 0.18996766 -0.023097629 0.01935501 0.15158682 -0.10253191
0.004966676 0.06571038 -0.21370736 -0.043849606 -0.18837972 -0.3089368 -0.18222447 0.14208353
-0.07445633 0.13783163 -0.02244667 -0.09012825 0.016747015 -0.040881533 -0.09067703 -0.20149198
0.082225576 -0.12430602 0.055636372 0.15447386 0.113606066 -0.06775768 0.10509161 -0.058179937
0.12693815 0.14008498 0.056525465 0.11679526 0.12389992 -0.0339384 0.04412635 0.057468113
0.0022016037 -0.09975321 -0.037166484 0.078178406 0.052963033 0.11029036 -0.0669039 0.06625094
0.0071069635 0.11612308 0.09228887 0.0433925 0.013708808 -0.09536359 0.024936765 0.014278352
-0.13513125 0.14775786 -0.01940892 -0.045250934 -0.09220775 -0.074649125 -0.13419361 -0.10441449
00000000: e852 0abd 9c90 1fbe ab7f 2dbe 254c 4f3d
00000010: c7d3 5f3d f001 00be c693 dabc 3474 d3bc
00000020: 56e6 4c3c 0173 493c 11fa 25be 5319 c8bd
00000030: 75fb 023d 2c7d 13be 9c7f b93c 95d6 bcbd
00000040: 356d 58bd e0ca aabd 55c1 e33c a68b 72bd
00000050: 9082 a23c c248 03be f60b eebc cf1d b43d
00000060: c948 363d 66d9 60bc 4401 8fbd a8ae 83bd
00000070: da65 bb3d 3fb0 04be 5a0a 86bd 2c55 b8bd
00000080: b400 88bd 25e8 9dbc 04a4 093e a7d4 a2bd
00000090: eaaa bf3d 6b55 393e 72b4 1a3e 9568 563d
000000a0: 42b3 d83d 8bd7 1c3e 1d98 71bd 8c49 38bd
000000b0: 18f4 c13d 7563 fd3b c5f5 b93d ad66 b53d
000000c0: b853 033e 0a61 983c ff85 2d3e 1592 a23c
000000d0: 4ba3 763b 9572 ab3d 3719 73bd 216e 003e
000000e0: 8f8a 7bbd 8164 ac3d be65 47bd 8041 953d
000000f0: a427 f93c d072 d2bc f3b6 7bbd cd38 b83d
00000100: 828c 1f3e d64d ab3d 6a98 0e3e 0c21 c5bd
00000110: 4cf2 8bbd 8214 c63d b5da da3c bb79 a8bd
00000120: 8569 03be ac4d 143e 1d36 113e 7059 913c
00000130: 6d93 853d 64dd c5bd 98b8 803d a0d1 933d
00000140: 4407 c63d a628 02be 06e5 4b3d b6bc 8b3c
00000150: 6571 a73d 1509 10be 3007 b3bb d60c f33c
00000160: db7f 0abe af53 2ebd ee6f e4bd b94a f6bd
00000170: a387 063e fb4f 893d 0999 88bd c7b2 20bc
00000180: e285 0dbe dbf7 1cbd 63ef 4d3d e15d 98bd
00000190: d64a a6bd dbb4 193d da06 ac3d 12af 013e
000001a0: 152a b4bd 6a32 b7bd 3ffa a5bd ccf5 48bd
000001b0: a4a8 e53d 3048 9b3b 7e84 07bd ee23 463d
000001c0: 89c3 04bd 7a5e e8bd ad7c c83d b4ca eaba
000001d0: 99ec 92bd b75d b0bd 1e11 97bd 6232 f53c
000001e0: 14f0 45bc 9b6f a4bc e154 b73d 429b 993d
000001f0: 686c 0e3e 964b a4bc 1b1b 473e b786 513e
00000200: d40d 183d 8d8b 10bd 27a5 2f3e fb91 fd3d
00000210: 4caa e13d a8ad c03d 7e97 073e 1cee 62be
00000220: 742a a6bd 63dd 41be 8ff8 44be 3e8f 53bd
00000230: 4223 cdbd e9ed 643d 1ae2 15be c647 1abd
00000240: 6387 0a3e 6d04 4b3e 4ce0 2a3e bfe7 72bd
00000250: d474 9c3d 3a0b ee3a fbc2 d2bd d248 283c
00000260: f429 633d 1394 f23d 6bf9 703e 49c5 ef3d
00000270: ccc8 1d3e a55e 663e af3c 43bc 9235 ac3c
00000280: 38cb 3c3e 2458 843b c453 92bd 596a 2dbe
00000290: 6abe 49be ce66 263a 48fb eebd 6016 c83c
000002a0: 6266 ec3d f135 533e bf98 363e 4455 093e
000002b0: 555a 9c3d 00b6 5d3e 0aef 94bd 2780 d63b
000002c0: fe58 1d3e c9bd 903d 5d8d e13d 3f4e 053e
000002d0: 5d9e 7abd 7d76 32be da0b bebd 48de 873d
000002e0: 28e8 8e3c d108 fbbd 925a b6bd a701 053e
000002f0: 6254 bf3d 42ff 70bd 5687 093d 57d2 1a3e
00000300: 99ed 6b3e e6a7 613d 476f e53d e286 423e
00000310: 3d37 bdbc 668e 9e3c 9339 1b3e 40fc d1bd
00000320: 7fbf a23b 2a93 863d 1ad6 5abe a59b 33bd
00000330: 9de6 40be f72c 9ebe 0d99 3abe 587e 113e
00000340: 8f7c 98bd bc23 0d3e 14e2 b7bc 2995 b8bd
00000350: 0931 893c 6573 27bd e1b4 b9bd ea53 4ebe
00000360: e265 a83d 2894 febd f7e2 633d 652e 1e3e
00000370: 4caa e83d 8ac4 8abd 453a d73d 164e 6ebd
00000380: 13fc 013e 7072 0f3e 3f87 673d 5a32 ef3d
00000390: 3ebf fd3d fe02 0bbd d5bd 343d af63 6b3d
000003a0: c848 103b 694b ccbd e23b 18bd 001c a03d
000003b0: c4ef 583d eadf e13d e904 89bd 93ae 873d
000003c0: 88e1 e83b f0d1 ed3d f201 bd3d 56bc 313d
000003d0: e99a 603c fc4d c3bd 3048 cc3c c0ef 693c
000003e0: d95f 0abe d64d 173e 75ff 9ebc 0b59 39bd
000003f0: 6bd7 bcbd a4e1 98bd 0d6a 09be 44d7 d5bd

h2.0.bias f4 [12]
-0.07629492 -0.18026964 0.05321114 -0.06852116 0.076680824 -0.13791443 0.088531286 0.0002964121
-0.040066544 -0.15854605 -0.054108284 0.09531312
00000000: 8340 9cbd 9b98 38be edf3 593d d254 8cbd
00000010: d60a 9d3d 7139 0dbe e44f b53d c267 9b39
00000020: d11c 24bd e559 22be a6a0 5dbd 8633 c33d

h3.0.weight f4 [18, 12, 3, 3]
-0.019602243 -0.02538165 -0.057098288 0.068971895 0.036858216 -0.029214729 -0.033396203 -0.060986668
-0.03317647 -0.013277097 -0.10751948 -0.04062509 0.021776065 0.011446507 -0.082711376 0.024072342
-0.064222105 0.051601056 0.03201887 0.09984731 0.13877931 0.016456254 0.05162822 0.009963787
0.14168075 0.06483873 0.11342676 -0.13632554 -0.07817334 -0.16136958 0.058175966 -0.12726961
-0.059812885 0.019831263 0.03705345 0.15003109 0.025173657 -0.032833636 0.06420141 0.06970166
0.05397979 0.096117124 -0.030739898 0.001421979 0.0006188043 0.010327106 -0.09905383 -0.09860484
-0.06487786 0.015038137 -0.08300181 -0.054958023 -0.0770545 -0.07253322 0.07009132 0.102758855
0.009800543 0.016629567 -0.043401986 -0.06158148 -0.033051383 0.11448823 -0.027594797 -0.1769602
-0.12279489 -0.13931403 -0.059728954 0.025731888 0.06954749 -0.072328575 0.010897239 0.0554862
0.039437275 0.14244914 0.03737121 0.0153143415 0.07233965 -0.011459427 -0.040838737 -0.009924397
0.066152774 0.06360317 0.06308207 -0.11127506 -0.044457514 0.04015208 -0.02045598 -0.094471484
-0.07759172 -0.029695371 0.111616366 -0.018356377 0.026780162 0.12048521 -0.009713163 0.06470902
-0.08002667 -0.08272966 -0.026050704 -0.08039173 0.11225346 0.09075506 0.08371726 0.050787915
-0.06534348 0.05947919 0.08066668 -0.0034006932 -0.08851902 0.083733104 -0.08151924 -0.017329255
0.067808084 -0.07378715 0.058604456 0.10388302 0.09784983 -0.06575153 -0.090134144 -0.05877099
0.055871222 -0.093923405 0.02130723 0.018907048 -0.049241275 0.039637197 0.01537704 0.06686845
0.14447603 -0.05633417 -0.028269077 0.013950789 0.10737813 -0.0335787 0.113727435 -0.13441917
-0.17419115 -0.035256926 0.08158307 0.04241442 0.003137777 0.092914924 -0.014570571 0.07988608
0.11035076 0.06712532 0.0011576803 -0.034971736 -0.034288485 0.04593653 0.042172227 0.05366835
-0.023071857 0.018795032 -0.048721854 -0.13284521 -0.10132406 -0.14728306 -0.13246013 0.05628567
-0.02800127 -0.12059217 0.006730023 0.047841866 0.039538454 0.069147445 0.12203918 0.0044738534
0.011369713 0.11720779 0.07795008 -0.14180647 -0.055930533 -0.004538333 0.009737494 -0.09709555
0.01582983 -0.11834645 -0.06728708 -0.08920864 -0.011974236 0.12732162 0.01098691 0.06958408
0.063726366 0.07844524 -0.030061245 -0.06682157 0.053376116 0.0030781676 -0.0814686 -0.04061663
0.004655779 -0.0004172726 -0.046640564 -0.091020346 -0.02656837 -0.020705344 0.022114113 0.011181162
0.11260757 -0.047515783 0.043401454 0.010535066 -0.029043946 0.011858457 0.04569666 -0.072916575
0.067388974 0.038837828 -0.05473541 0.00017690015 -0.016854733 0.10168562 0.016564632 0.11640409
-0.10221396 0.03378142 -0.050831392 -0.1143269 -0.11718789 -0.08953933 -0.033943474 0.04279412
-0.10336216 -0.041506696 -0.011371678 0.033140384 -0.05214925 0.057551775 -0.056123067 -0.05044169
-0.062088408 -0.03160543 0.044077553 0.0007460958 0.020802561 -0.028945718 0.1408193 -0.004128627
0.08123329 0.10676842 0.019642804 -0.03850694 -0.14790341 0.012012924 0.07306607 0.0035238273
-0.024466991 0.043597374 0.05339491 0.016089538 0.12672144 0.076652005 0.08994258 0.017347315
00000000: e294 a0bc 2eed cfbc e5df 69bd 2341 8d3d
00000010: a4f8 163d ba53 efbc 75ca 08bd 28cd 79bd
00000020: 0de4 07bd 2e88 59bc 2c33 dcbd 7f66 26bd
00000030: b863 b23c 218a 3b3c 9564 a9bd 5c33 c53c
00000040: e186 83bd a15b 533d 3826 033d bf7c cc3d
00000050: 2a1c 0e3e 44cf 863c 1d78 533d 273f 233c
00000060: c214 113e 2bca 843d 4a4c e83d ec98 0bbe
00000070: 5819 a0bd 113e 25be ec49 6e3d f752 02be
00000080: 5bfe 74bd 2c75 a23c 5cc5 173d c0a1 193e
00000090: fc38 ce3c 907c 06bd 077c 833d bebf 8e3d
000000a0: ea19 5d3d 0ed9 c43d 3dd2 fbbc b361 ba3a
000000b0: 4137 223a 0633 293c bcdc cabd 56f1 c9bd
000000c0: afde 84bd 8562 763c dafc a9bd aa1b 61bd
000000d0: c0ce 9dbd 4c8c 94bd 0a8c 8f3d 3c73 d23d
000000e0: 7592 203c bb3a 883c 48c6 31bd dd3c 7cbd
000000f0: e360 07bd ce78 ea3d 7c0e e2bc 0e35 35be
00000100: e37b fbbd 56a8 0ebe 59a6 74bd aecb d23c
00000110: ea6e 8e3d 0121 94bd 558a 323c 7f45 633d
00000120: fb88 213d 30de 113e 8e12 193d 01e9 7a3c
00000130: cf26 943d 52c0 3bbc 8546 27bd f099 22bc
00000140: 1b7b 873d 6142 823d 2c31 813d 2ee4 e3bd
00000150: 1519 36bd 8276 243d 4d93 a7bc 447a c1bd
00000160: 68e8 9ebd b543 f3bc 1f97 e43d 1d60 96bc
00000170: 1262 db3c f3c0 f63d f523 1fbc 2a86 843d
00000180: 06e5 a3bd 2b6e a9bd 4968 d5bc 6ba4 a4bd
00000190: 24e5 e53d cadd b93d f473 ab3d fd06 503d
000001a0: cdd2 85bd 73a0 733d 9334 a53d 2ade 5ebb
000001b0: 7649 b5bd 437c ab3d 8ff3 a6bd 15f6 8dbc
000001c0: f7de 8a3d b81d 97bd 3a0b 703d 9fc0 d43d
000001d0: 7e65 c83d bda8 86bd 4098 b8bd dab9 70bd
000001e0: 39d9 643d ea5a c0bd 808c ae3c f4e2 9a3c
000001f0: 38b1 49bd 9d5a 223d fbef 7b3c 53f2 883d
00000200: 86f1 133e a9be 66bd 8d94 e7bc da91 643c
00000210: 11e9 db3d d289 09bd eee9 e83d 2ea5 09be
00000220: 2a5f 32be 9169 10bd 0615 a73d beba 2d3d
00000230: 2aa3 4d3b 2e4a be3d 67b9 6ebc 509b a33d
00000240: 94ff e13d 0079 893d 4ebd 973a 863e 0fbd
00000250: 1572 0cbd f127 3c3d c9bc 2c3d 58d3 5b3d
00000260: 3101 bdbc 0af8 993c 9190 47bd 9308 08be
00000270: fd82 cfbd 5fd1 16be a1a3 07be cd8b 663d
00000280: eb62 e5bc 07f9 f6bd 8687 dc3b d5f5 433d
00000290: 13f3 213d 2d9d 8d3d adef f93d 6799 923b
000002a0: 0848 3a3c a30a f03d 4ba4 9f3d b735 11be
000002b0: 6a17 65bd 4cb6 94bb 038a 1f3c 08da c6bd
000002c0: 8fad 813c a05f f2bd cfcd 89bd 05b3 b6bd
000002d0: 962f 44bc 9960 023e 7102 343c 1982 8e3d
000002e0: f882 823d e6a7 a03d 0043 f6bc bfd9 88bd
000002f0: eaa0 5a3d 15bb 493b 02d9 a6bd a05d 26bd
00000300: 818f 983b 61c5 dab9 2d0a 3fbd e068 babd
00000310: e9a5 d9bc 419e a9bc a828 b53c 3131 373c
00000320: cc9e e63d e99f 42bd b9c5 313d 459b 2c3c
00000330: 92ed edbc f949 423c 6c2c 3b3d 4955 95bd
00000340: 3b03 8a3d 6a14 1f3d 3d32 60bd 467e 3939
00000350: f012 8abc 8d40 d03d 8db2 873c 4465 ee3d
00000360: 8d55 d1bd 635e 0a3d 9434 50bd 3924 eabd
00000370: 3400 f0bd 6560 b7bd 5008 0bbd e348 2f3d
00000380: 8aaf d3bd ed02 2abd 4650 3abc 36be 073d
00000390: 749a 55bd 69bb 6b3d 4de1 65bd f29b 4ebd
000003a0: 6a50 7ebd b274 01bd aa8a 343d a495 433a
000003b0: 226a aa3c 921f edbc ef32 103e 6f49 87bb
000003c0: a45d a63d 67a9 da3d f2e9 a03c 74b9 1dbd
000003d0: fe73 17be dbd1 443c aaa3 953d 03f0 663b
000003e0: 006f c8bc 2993 323d 9fb4 5a3d 35ce 833c
000003f0: 44c3 013e bafb 9c3d d133 b83d f51b 8e3c

h3.0.bias f4 [18]
0.025874076 0.075464934 0.07205089 -0.047543388 -0.063114636 0.044142872 0.05245456 0.07072432
-0.0023763317 -0.114273176 -0.03293437 -0.11412135 -0.16614641 -0.03206996 -0.14343573 0.10729034
-0.01966322 0.10316655
00000000: dff5 d33c 5c8d 9a3d 6b8f 933d dbbc 42bd
00000010: 3f42 81bd 28cf 343d 98da 563d ead7 903d
00000020: 3bbc 1bbb 0e08 eabd 31e6 06bd 74b8 e9bd
00000030: 4922 2abe ca5b 03bd d1e0 12be 0abb db3d
00000040: c314 a1bc fc48 d33d

h4.0.weight f4 [24, 18, 3, 3]
-0.00056063646 -0.0019533683 0.00017072263 -0.1003205 -0.021720553 -0.048431702 0.009139133 -0.04760171
-0.0042185923 -0.104317695 0.009966003 -0.031398095 -0.013798203 -0.054981355 0.015130963 -0.08819084
-0.052661687 0.022079548 -0.0811896 -0.03517984 -0.0546506 -0.01583778 -0.0013177531 -0.013528111
-0.016156709 -0.06001331 0.030876504 -0.052383 -0.027271304 -0.1001863 -0.082277164 -0.082004935
-0.051038012 -0.04150248 -0.053118736 0.013581662 -0.03615932 -0.08449315 -0.07572942 -0.078879505
-0.076202154 0.0063523264 -0.08988193 0.0229605 -0.014028053 -0.04459965 0.0017994437 -0.030351656
-0.083263986 -0.08297231 -0.043927863 -0.054333255 0.06412458 -0.025003888 -0.03221475 -0.0289566
0.04137363 -0.02503886 -0.09710577 0.049529713 -0.024126755 -0.017030835 0.03759731 -0.008772233
-0.093010806 -0.12650874 -0.028959475 -0.08187523 -0.0048890384 0.013713964 0.005981777 -0.026336877
0.06864644 0.117779166 0.10819218 -2.8625764e-05 0.054725308 0.08069216 0.11028288 0.048487928
-0.05971365 -0.00072688743 0.09986759 0.093126334 0.10857546 -0.011398953 0.028763188 -0.042470854
-0.005862138 0.0043727737 -0.00064723345 0.096678585 0.11407495 -0.019055631 0.022667706 -0.020518925
0.052022066 0.041759346 -0.028445398 0.11603849 0.109949045 -0.027336925 0.007606092 0.06188867
0.07459822 -0.01404108 -0.018631948 0.08550673 0.12794518 0.090240315 0.03492063 0.04029828
0.0060790996 0.07997232 0.08026585 0.045957103 -0.0010377221 0.027513124 0.08417868 0.07350192
0.099202834 -0.004443588 0.012437226 -0.028658679 0.043070253 0.022200702 0.06959168 0.06471117
-0.028568776 -0.03170688 -0.041928034 0.0021662083 0.059929717 0.09036562 0.011815572 -0.033368792
-0.04411179 0.0127025265 -0.04383423 -0.02871007 0.052220874 -0.071488395 -0.04287388 -0.03614759
-0.030240752 0.0646725 0.055438895 0.014839401 -0.0071769557 -0.005753058 -0.030526262 0.0891603
0.08200048 -0.027616497 -0.04329555 0.054313272 -0.016695304 -0.10025741 0.03390975 0.050280675
-0.07957003 0.0036336633 -0.012760714 -0.065597855 -0.0032298856 -0.03156335 0.03614391 -0.0025644307
-0.021597954 -0.015757874 0.08387455 0.02621794 -0.06446629 -0.06772414 -0.070589535 0.0051129763
0.04161129 0.033307478 0.071861625 0.018706053 -0.027894288 -0.10563835 -0.12287138 -0.0010131951
-0.12519042 -0.010924836 0.03277247 -0.104757234 0.05575911 -0.13026233 -0.03711747 -0.10681919
-0.08651876 -0.10555685 -0.06311696 0.058449615 0.009952354 -0.02202621 -0.012356253 -0.05946479
-0.007081546 -0.0821024 -0.046354357 -0.044168364 -0.03133128 0.008644629 -0.07520488 -0.089954555
-0.08487171 -0.08499137 -0.09139723 -0.067494884 -0.038658135 0.0550689 0.0517291 0.069870524
0.027536293 -0.044018116 -0.048701055 -0.035556864 -0.081248224 -0.011318709 -0.02356195 -0.00029458082
-0.01729683 -0.054250266 -0.02504774 -0.10570276 -0.08306941 -0.124801725 -0.10404691 -0.049955092
0.0169079 -0.038470898 0.09128251 0.04073589 -0.013427566 0.08962287 0.018644929 0.048368283
-0.023175385 0.08446211 0.0153803 0.10016376 0.09809667 0.047056604 0.092900425 0.06369153
0.011821365 0.03606858 0.006357933 0.084113196 0.06613582 0.054622926 0.10113235 -0.015119737
00000000: adf7 12ba 1504 00bb 0204 3339 d674 cdbd
00000010: 4def b1bc 5260 46bd 4dbc 153c 03fa 42bd
00000020: 1e3c 8abb 84a4 d5bd 7248 233c 4a9b 00bd
00000030: dc11 62bc 2134 61bd dce7 773c 669d b4bd
00000040: c8b3 57bd 2be0 b43c bc46 a6bd bc18 10bd
00000050: 4fd9 5fbd 3bbe 81bc 75b8 acba 03a5 5dbc
00000060: 135b 84bc 84d0 75bd b9f0 fc3c 8e8f 56bd
00000070: 1268 dfbc 7a2e cdbd ee80 a8bd 34f2 a7bd
00000080: 3c0d 51bd 81fe 29bd 0893 59bd 9f85 5e3c
00000090: cc1b 14bd bf0a adbd 0718 9bbd 948b a1bd
000000a0: e00f 9cbd 2d27 d03b 0414 b8bd a917 bc3c
000000b0: ebd5 65bc 1fae 36bd 50db eb3a 09a4 f8bc
000000c0: 4f86 aabd 63ed a9bd b4ed 33bd 8c8c 5ebd
000000d0: bf53 833d f4d4 ccbc 9df3 03bd 6436 edbc
000000e0: 6577 293d 4c1e cdbc 64df c6bd abdf 4a3d
000000f0: 79a5 c5bc 4084 8bbc a3ff 193d 69b9 0fbc
00000100: 737c bebd 828b 01be 6c3c edbc 33ae a7bd
00000110: 3a34 a0bb 89b0 603c c802 c43b 6fc0 d7bc
00000120: 8196 8c3d 3436 f13d dd93 dd3d 5c21 f0b7
00000130: a527 603d ee41 a53d fedb e13d 479b 463d
00000140: 4d96 74bd 978c 3eba 6187 cc3d 05b9 be3d
00000150: d05c de3d adc2 3abc c7a0 eb3c ebf5 2dbd
00000160: 2d17 c0bb 7c49 8f3b 1aab 29ba 6cff c53d
00000170: 21a0 e93d 8e1a 9cbc a0b1 b93c 4e17 a8bc
00000180: 1715 553d d90b 2b3d 5306 e9bc 96a5 ed3d
00000190: f72c e13d b0f1 dfbc 863c f93b f97e 7d3d
000001a0: f4c6 983d 8f0c 66bc 07a2 98bc 271e af3d
000001b0: 1004 033e eacf b83d ef08 0f3d cf0f 253d
000001c0: 2f33 c73b 87c8 a33d 6c62 a43d 843d 3c3d
000001d0: 2d04 88ba 3463 e13c df65 ac3d 2d88 963d
000001e0: db2a cb3d 859b 91bb 82c5 4b3c 9bc5 eabc
000001f0: 6f6a 303d 3fde b53c 1586 8e3d 4a87 843d
00000200: 1109 eabc 13df 01bd bbbc 2bbd f2f6 0d3b
00000210: dd78 753d 9c11 b93d 1a96 413c b7ad 08bd
00000220: 90ae 34bd 421e 503c 868b 33bd 6131 ebbc
00000230: 8ee5 553d 8268 92bd 869c 2fbd 7f0f 14bd
00000240: 74bb f7bc 0473 843d e513 633d f520 733c
00000250: ab2c ebbb 2684 bcbb 3612 fabc ad99 b63d
00000260: deef a73d fe3b e2bc ad56 31bd 9877 5e3d
00000270: 97c4 88bc c253 cdbd f3e4 0a3d 1cf3 4d3d
00000280: 9df5 a2bd c122 6e3b 5012 51bc 2b58 86bd
00000290: 7dac 53bb 9248 01bd a30b 143d 0210 28bb
000002a0: 31ee b0bc a816 81bc 6cc6 ab3d 01c7 d63c
000002b0: e706 84bd f4b2 8abd 3f91 90bd c18a a73b
000002c0: 9a70 2a3d 6c6d 083d 302c 933d 703d 993c
000002d0: 9082 e4bc eb58 d8bd fda3 fbbd 30cd 84ba
000002e0: eb31 00be 15fe 32bc 6d3c 063d f68a d6bd
000002f0: aa63 643d 7d63 05be 7d08 18bd 05c4 dabd
00000300: bf30 b1bd 312e d8bd 7743 81bd dd68 6f3d
00000310: 330f 233c 4f70 b4bc e271 4abc 5a91 73bd
00000320: 500c e8bb 4e25 a8bd 11de 3dbd e3e9 34bd
00000330: 3a55 00bd 34a2 0d3c 0405 9abd 183a b8bd
00000340: 38d1 adbd f50f aebd 792e bbbd c23a 8abd
00000350: fe57 1ebd ed8f 613d e5e1 533d 4718 8f3d
00000360: cb93 e13c 574c 34bd c27a 47bd 13a4 11bd
00000370: 7865 a6bd 1b72 39bc fe04 c1bc f871 9ab9
00000380: 15b2 8dbc 8735 5ebd eb30 cdbc b07a d8bd
00000390: 4b20 aabd 0c98 ffbd 8c16 d5bd b69d 4cbd
000003a0: 7082 8a3c a993 1dbd 53f2 ba3d adda 263d
000003b0: 4bff 5bbc 328c b73d 40bd 983c d21d 463d
000003c0: 4eda bdbc 79fa ac3d a7fd 7b3c a822 cd3d
000003d0: e8e6 c83d 6dbe 403d 9442 be3d b470 823d
000003e0: 66ae 413c a6bc 133d 3556 d03b 8a43 ac3d
000003f0: 3772 873d 4abc 5f3d 7a1e cf3d c6b8 77bc

h4.0.bias f4 [24]
-0.06864132 -0.05151453 -0.0056840517 0.033690654 0.10866154 0.043873172 0.054962795 -0.13060986
-0.06338081 -0.09602946 -0.050678093 -0.027982404 0.047341056 -0.014792536 0.082536176 0.06336904
-0.07190992 0.09376997 0.052982528 -0.09629596 0.106489226 0.020786101 0.0013273371 -0.0069800857
00000000: d293 8cbd e600 53bd 4841 babb 36ff 093d
00000010: f189 de3d 5bb4 333d ab20 613d 97be 05be
00000020: cccd 81bd 18ab c4bd d593 4fbd 5b3b e5bc
00000030: b2e8 413d 655c 72bc ba08 a93d a1c7 813d
00000040: 8245 93bd 780a c03d 3504 593d d136 c5bd
00000050: 0617 da3d 9d47 aa3c 0bfa ad3a 34b9 e4bb

output.0.weight f4 [1, 24, 3, 3]
-0.10204479 -0.0752535 -0.0870313 -0.005072781 0.013888942 0.026645012 -0.10881536 -0.046463322
0.005761411 -0.07957266 -0.08548079 -0.026958821 0.029882992 0.016319493 -0.024634441 -0.066178516
-0.097694695 -0.03934048 -0.059069134 -0.13949224 -0.052642442 -0.091955855 -0.113164045 -0.14899057
-0.06254365 -0.11836491 -0.058603067 -0.04327855 0.07304607 -0.024833692 -0.017498307 0.028590987
-0.0130412495 -0.019705009 0.03697536 0.03914396 0.03726778 0.08459285 -0.013606667 -0.009419681
0.049273238 -0.028146602 0.09007213 0.07730212 0.040929135 0.09105927 0.103743 0.10455036
0.011221479 -0.0060029496 -0.022490302 0.07668571 0.04385491 0.017094778 0.10433688 -0.031146118
0.034687553 0.15500827 0.08845611 0.022470176 0.17720085 0.02722002 -0.0029474099 -0.018264318
-0.12081525 -0.1351264 -0.08115432 -0.034796108 -0.0707837 -0.0200851 -0.053080402 -0.13955636
-0.075762264 -0.07072512 -0.030595785 -0.07646179 -0.043711912 0.028140161 -0.04604784 -0.06404199
-0.04129525 -0.04333344 -0.0756863 -0.09796661 -0.08856122 -0.044331428 0.013324635 -0.018513944
0.0041193967 -0.080716334 -0.034663677 -0.031263705 -0.09232176 -0.076626584 -0.06457426 -0.07058492
-0.06566225 -0.06641938 0.0024681168 0.02802716 0.12004295 0.10575158 0.058244474 0.080294706
0.010654393 0.03211036 0.048664045 0.09060621 -0.08494353 -0.09660111 0.009730408 -0.068161145
-0.04549621 -0.09000217 -0.03310649 -0.069769956 -0.09216888 -0.017682157 -0.0041342727 0.025689786
-0.09279562 -0.0073317657 -0.11268294 -0.15391386 -0.044738874 -0.08527448 0.09525723 0.0612767
0.07402186 -0.024812175 -0.0322393 0.024153963 0.090918496 0.079321355 0.045251064 -0.014623372
0.048709083 0.058775503 0.08501147 0.079596415 0.046328403 0.09106382 0.075729206 0.06911571
-0.027009606 -0.011970395 -0.08974562 -0.06384998 -0.014056132 0.005277472 3.930297e-05 -0.07246205
-0.07992934 0.07129441 0.0654033 0.04289456 0.05766875 0.093597926 -0.028250165 0.04431915
0.087263964 0.06770622 0.028572654 0.0038338816 0.07356973 0.095807694 0.096098594 0.08117886
0.022935687 0.06036752 -0.019385321 -0.07489925 -0.12487594 -0.082109906 0.033089854 0.019472737
-0.11465243 0.039239887 -0.015788032 -0.076897375 0.08360879 0.14454228 0.04224369 0.028543409
0.13326159 0.060947873 0.109623685 0.008694545 0.040958017 0.1574927 0.09851651 0.18069315
0.031102438 0.008080275 0.12815191 0.09077264 0.14345834 0.14168724 -0.09657259 -0.014839358
-0.07441892 -0.012514619 -0.05552839 0.001734333 -0.08368864 -0.11095776 -0.040812463 0.06920934
0.00603174 0.15864898 0.0909108 0.09267466 0.09832667 0.09551136 0.041589797 0.19742896
00000000: dcfc d0bd 821e 9abd 773d b2bd 9239 a6bb
00000010: 728e 633c a446 da3c 96da debd 5350 3ebd
00000020: 38ca bc3b fef6 a2bd 8d10 afbd bfd8 dcbc
00000030: 2dcd f43c 75b0 853c 2bce c9bc 9a88 87bd
00000040: 2814 c8bd 7c23 21bd 7af2 71bd 0ed7 0ebe
00000050: 9a9f 57bd 5a53 bcbd 8dc2 e7bd fc90 18be
00000060: e316 80bd 4d69 f2bd c509 70bd d944 31bd
00000070: 2e99 953d 0770 cbbc 9c58 8fbc a537 ea3c
00000080: f7aa 55bc 666c a1bc 7a73 173d 6b55 203d
00000090: 1aa6 183d 043f ad3d 7fee 5ebc 0155 1abc
000000a0: bcd2 493d b493 e6bc bd77 b83d 9350 9e3d
000000b0: 4fa5 273d 487d ba3d 3677 d43d 801e d63d
000000c0: 4bda 373c 64b4 c4bb 953d b8bc 660d 9d3d
000000d0: 35a1 333d 590a 8c3c 93ae d53d 2526 ffbc
000000e0: 8914 0e3d 7dba 1e3e 7a28 b53d 6013 b83c
000000f0: 2474 353e 85fc de3c 5529 41bb 0d9f 95bc
00000100: fc6d f7bd 935e 0abe 3c34 a6bd 5d86 0ebd
00000110: 0bf7 90bd 8289 a4bc d66a 59bd dde7 0ebe
00000120: 3f29 9bbd 55d8 90bd 03a4 fabc 0098 9cbd
00000130: 430b 33bd 3286 e63c a99c 3cbd 7228 83bd
00000140: 3525 29bd 687e 31bd 6b01 9bbd b8a2 c8bd
00000150: 965f b5bd df94 35bd 924f 5a3c 8eaa 97bc
00000160: 01fc 863b 9b4e a5bd 80fb 0dbd 5f0e 00bd
00000170: 3113 bdbd 66ee 9cbd 823f 84bd d48e 90bd
00000180: ee79 86bd e206 88bd 21c0 213b 3799 e53c
00000190: 14d9 f53d 4994 d83d c291 6e3d 8d71 a43d
000001a0: c38f 2e3c 2786 033d f353 473d c08f b93d
000001b0: e0f6 adbd ced6 c5bd 4a6c 1f3c 1298 8bbd
000001c0: 3c5a 3abd 0f53 b8bd ac9a 07bd 8de3 8ebd
000001d0: 0ac3 bcbd 2cda 90bc cb78 87bb 6373 d23c
000001e0: a10b bebd 4f3f f0bb 50c6 e6bd 989b 1dbe
000001f0: 1c40 37bd 63a4 aebd 3916 c33d 47fd 7a3d
00000200: c698 973d e742 cbbc 5b0d 04bd 88de c53c
00000210: 7a33 ba3d 3c73 a23d 2e59 393d de96 6fbc
00000220: 2d83 473d 95be 703d 7e1a ae3d 7203 a33d
00000230: dac2 3d3d ab7f ba3d ea17 9b3d 8a8c 8d3d
00000240: 4043 ddbc 7a1f 44bc 8dcc b7bd c7c3 82bd
00000250: b14b 66bc a5ee ac3b 3ed9 2438 fc66 94bd
00000260: feb1 a3bd ce02 923d 2af2 853d 35b2 2f3d
00000270: 1136 6c3d 45b0 bf3d e46c e7bc ff87 353d
00000280: 73b7 b23d 8fa9 8a3d 3311 ea3c dc41 7b3b
00000290: baab 963d d336 c43d 57cf c43d 1a41 a63d
000002a0: 9fe3 bb3c ef43 773d f7cd 9ebc c764 99bd
000002b0: f5be ffbd 3d29 a8bd 3a89 073d 4a85 9f3c
000002c0: e5ce eabd 01ba 203d e755 81bc 5f7c 9dbd
000002d0: 163b ab3d e402 143e b807 2d3d ded3 e93c
000002e0: ba75 083e 7aa4 793d 6282 e03d 9173 0e3c
000002f0: 98c3 273d c445 213e 06c3 c93d a007 393e
00000300: 8aca fe3c 2163 043c 413a 033e 02e7 b93d
00000310: bee6 123e 7616 113e dac7 c5bd c720 73bc
00000320: f268 98bd 1e0a 4dbc bd71 63bd 8f52 e33a
00000330: f364 abbd d23d e3bd f82a 27bd a0bd 8d3d
00000340: e7a5 c53b e174 223e 712f ba3d 36cc bd3d
00000350: 7e5f c93d 769b c33d 105a 2a3d d12a 4a3e
